…
      sampler {
        min_scale: 0.3
        max_scale: 1
        min_aspect_ratio: 0.5
        max_aspect_ratio: 2
      }
      sample_constraint {
        min_jaccard_overlap: 0.9
      }
      max_sample: 1
      max_trials: 50
    }
    batch_sampler {
      sampler {
        min_scale: 0.3
        max_scale: 1
        min_aspect_ratio: 0.5
        max_aspect_ratio: 2
      }
      sample_constraint {
        max_jaccard_overlap: 1
      }
      max_sample: 1
      max_trials: 50
    }
    label_map_file: "data/coco/labelmap_coco.prototxt"
  }
}
layer {
  name: "conv1_1"
  type: "Convolution"
  bottom: "data"
  top: "conv1_1"
  param {
    lr_mult: 1
    decay_mult: 1
  }
  param {
    lr_mult: 2
    decay_mult: 0
  }
  convolution_param {
    num_output: 64
    pad: 1
    kernel_size: 3
    weight_filler {
      type: "xavier"
    }
    bias_filler {
      type: "constant"
      value: 0
    }
  }
}
layer {
  name: "relu1_1"
  type: "ReLU"
  bottom: "conv1_1"
  top: "conv1_1"
}
layer {
  name: "conv1_2"
  type: "Convolution"
  bottom: "conv1_1"
  top: "conv1_2"
  param {
    lr_mult: 1
    decay_mult: 1
  }
  param {
    lr_mult: 2
    decay_mult: 0
  }
  convolution_param {
    num_output: 64
    pad: 1
    kernel_size: 3
    weight_filler {
      type: "xavier"
    }
    bias_filler {
      type: "constant"
      value: 0
    }
  }
}
layer {
  name: "relu1_2"
  type: "ReLU"
  bottom: "conv1_2"
  top: "conv1_2"
}
layer {
  name: "pool1"
  type: "Pooling"
  bottom: "conv1_2"
  top: "pool1"
  pooling_param {
    pool: MAX
    kernel_size: 2
    stride: 2
  }
}
layer {
  name: "conv2_1"
  type: "Convolution"
  bottom: "pool1"
  top: "conv2_1"
  param {
    lr_mult: 1
    decay_mult: 1
  }
  param {
    lr_mult: 2
    decay_mult: 0
  }
  convolution_param {
    num_output: 128
    pad: 1
    kernel_size: 3
    weight_filler {
      type: "xavier"
    }
    bias_filler {
      type: "constant"
      value: 0
    }
  }
}
layer {
  name: "relu2_1"
  type: "ReLU"
  bottom: "conv2_1"
  top: "conv2_1"
}
layer {
  name: "conv2_2"
  type: "Convolution"
  bottom: "conv2_1"
  top: "conv2_2"
  param {
    lr_mult: 1
    decay_mult: 1
  }
  param {
    lr_mult: 2
    decay_mult: 0
  }
  convolution_param {
    num_output: 128
    pad: 1
    kernel_size: 3
    weight_filler {
      type: "xavier"
    }
    bias_filler {
      type: "constant"
      value: 0
    }
  }
}
layer {
  name: "relu2_2"
  type: "ReLU"
  bottom: "conv2_2"
  top: "conv2_2"
}
layer {
  name: "pool2"
  type: "Pooling"
  bottom: "conv2_2"
  top: "pool2"
  pooling_param {
    pool: MAX
    kernel_size: 2
    stride: 2
  }
}
layer {
  name: "conv3_1"
  type: "Convolution"
  bottom: "pool2"
  top: "conv3_1"
  param {
    lr_mult: 1
    decay_mult: 1
  }
  param {
    lr_mult: 2
    decay_mult: 0
  }
  convolution_param {
    num_output: 256
    pad: 1
    kernel_size: 3
    weight_filler {
      type: "xavier"
    }
    bias_filler {
      type: "constant"
      value: 0
    }
  }
}
layer {
  name: "relu3_1"
  type: "ReLU"
  bottom: "conv3_1"
  top: "conv3_1"
}
layer {
  name: "conv3_2"
  type: "Convolution"
  bottom: "conv3_1"
  top: "conv3_2"
  param {
    lr_mult: 1
    decay_mult: 1
  }
  param {
    lr_mult: 2
    decay_mult: 0
  }
  convolution_param {
    num_output: 256
    pad: 1
    kernel_size: 3
    weight_filler {
      type: "xavier"
    }
    bias_filler {
      type: "constant"
      value: 0
    }
  }
}
layer {
  name: "relu3_2"
  type: "ReLU"
  bottom: "conv3_2"
  top: "conv3_2"
}
layer {
  name: "conv3_3"
  type: "Convolution"
  bottom: "conv3_2"
  top: "conv3_3"
  param {
    lr_mult: 1
    decay_mult: 1
  }
  param {
    lr_mult: 2
    decay_mult: 0
  }
  convolution_param {
    num_output: 256
    pad: 1
    kernel_size: 3
    weight_filler {
      type: "xavier"
    }
    bias_filler {
      type: "constant"
      value: 0
    }
  }
}
layer {
  name: "relu3_3"
  type: "ReLU"
  bottom: "conv3_3"
  top: "conv3_3"
}
layer {
  name: "pool3"
  type: "Pooling"
  bottom: "conv3_3"
  top: "pool3"
  pooling_param {
    pool: MAX
    kernel_size: 2
    stride: 2
  }
}
layer {
  name: "conv4_1"
  type: "Convolution"
  bottom: "pool3"
  top: "conv4_1"
  param {
    lr_mult: 1
    decay_mult: 1
  }
  param {
    lr_mult: 2
    decay_mult: 0
  }
  convolution_param {
    num_output: 512
    pad: 1
    kernel_size: 3
    weight_filler {
      type: "xavier"
    }
    bias_filler {
      type: "constant"
      value: 0
    }
  }
}
layer {
  name: "relu4_1"
  type: "ReLU"
  bottom: "conv4_1"
  top: "conv4_1"
}
layer {
  name: "conv4_2"
  type: "Convolution"
  bottom: "conv4_1"
  top: "conv4_2"
  param {
    lr_mult: 1
    decay_mult: 1
  }
  param {
    lr_mult: 2
    decay_mult: 0
  }
  convolution_param {
    num_output: 512
    pad: 1
    kernel_size: 3
    weight_filler {
      type: "xavier"
    }
    bias_filler {
      type: "constant"
      value: 0
    }
  }
}
layer {
  name: "relu4_2"
  type: "ReLU"
  bottom: "conv4_2"
  top: "conv4_2"
}
layer {
  name: "conv4_3"
  type: "Convolution"
  bottom: "conv4_2"
  top: "conv4_3"
  param {
    lr_mult: 1
    decay_mult: 1
  }
  param {
    lr_mult: 2
    decay_mult: 0
  }
  convolution_param {
    num_output: 512
    pad: 1
    kernel_size: 3
    weight_filler {
      type: "xavier"
    }
    bias_filler {
      type: "constant"
      value: 0
    }
  }
}
layer {
  name: "relu4_3"
  type: "ReLU"
  bottom: "conv4_3"
  top: "conv4_3"
}
layer {
  name: "pool4"
  type: "Pooling"
  bottom: "conv4_3"
  top: "pool4"
  pooling_param {
    pool: MAX
    kernel_size: 2
    stride: 2
  }
}
layer {
  name: "conv5_1"
  type: "Convolution"
  bottom: "pool4"
  top: "conv5_1"
  param {
    lr_mult: 1
    decay_mult: 1
  }
  param {
    lr_mult: 2
    decay_mult: 0
  }
  convolution_param {
    num_output: 512
    pad: 1
    kernel_size: 3
    weight_filler {
      type: "xavier"
    }
    bias_filler {
      type: "constant"
      value: 0
    }
    dilation: 1
  }
}
layer {
  name: "relu5_1"
  type: "ReLU"
  bottom: "conv5_1"
  top: "conv5_1"
}
layer {
  name: "conv5_2"
  type: "Convolution"
  bottom: "conv5_1"
  top: "conv5_2"
  param {
    lr_mult: 1
    decay_mult: 1
  }
  param {
    lr_mult: 2
    decay_mult: 0
  }
  convolution_param {
    num_output: 512
    pad: 1
    kernel_size: 3
    weight_filler {
      type: "xavier"
    }
    bias_filler {
      type: "constant"
      value: 0
    }
    dilation: 1
  }
}
layer {
  name: "relu5_2"
  type: "ReLU"
  bottom: "conv5_2"
  top: "conv5_2"
}
layer {
  name: "conv5_3"
  type: "Convolution"
  bottom: "conv5_2"
  top: "conv5_3"
  param {
    lr_mult: 1
    decay_mult: 1
  }
  param {
    lr_mult: 2
    decay_mult: 0
  }
  convolution_param {
    num_output: 512
    pad: 1
    kernel_size: 3
    weight_filler {
      type: "xavier"
    }
    bias_filler {
      type: "constant"
      value: 0
    }
    dilation: 1
  }
}
layer {
  name: "relu5_3"
  type: "ReLU"
  bottom: "conv5_3"
  top: "conv5_3"
}
layer {
  name: "pool5"
  type: "Pooling"
  bottom: "conv5_3"
  top: "pool5"
  pooling_param {
    pool: MAX
    kernel_size: 3
    stride: 1
    pad: 1
  }
}
layer {
  name: "fc6"
  type: "Convolution"
  bottom: "pool5"
  top: "fc6"
  param {
    lr_mult: 1
    decay_mult: 1
  }
  param {
    lr_mult: 2
    decay_mult: 0
  }
  convolution_param {
    num_output: 1024
    pad: 6
    kernel_size: 3
    weight_filler {
      type: "xavier"
    }
    bias_filler {
      type: "constant"
      value: 0
    }
    dilation: 6
  }
}
layer {
  name: "relu6"
  type: "ReLU"
  bottom: "fc6"
  top: "fc6"
}
layer {
  name: "fc7"
  type: "Convolution"
  bottom: "fc6"
  top: "fc7"
  param {
    lr_mult: 1
    decay_mult: 1
  }
  param {
    lr_mult: 2
    decay_mult: 0
  }
  convolution_param {
    num_output: 1024
    kernel_size: 1
    weight_filler {
      type: "xavier"
    }
    bias_filler {
      type: "constant"
      value: 0
    }
  }
}
layer {
  name: "relu7"
  type: "ReLU"
  bottom: "fc7"
  top: "fc7"
}
layer {
  name: "conv6_1"
  type: "Convolution"
  bottom: "fc7"
  top: "conv6_1"
  param {
    lr_mult: 1
    decay_mult: 1
  }
  param {
    lr_mult: 2
    decay_mult: 0
  }
  convolution_param {
    num_output: 256
    pad: 0
    kernel_size: 1
    stride: 1
    weight_filler {
      type: "xavier"
    }
    bias_filler {
      type: "constant"
      value: 0
    }
  }
}
layer {
  name: "conv6_1_relu"
  type: "ReLU"
  bottom: "conv6_1"
  top: "conv6_1"
}
layer {
  name: "conv6_2"
  type: "Convolution"
  bottom: "conv6_1"
  top: "conv6_2"
  param {
    lr_mult: 1
    decay_mult: 1
  }
  param {
    lr_mult: 2
    decay_mult: 0
  }
  convolution_param {
    num_output: 512
    pad: 1
    kernel_size: 3
    stride: 2
    weight_filler {
      type: "xavier"
    }
    bias_filler {
      type: "constant"
      value: 0
    }
  }
}
layer {
  name: "conv6_2_relu"
  type: "ReLU"
  bottom: "conv6_2"
  top: "conv6_2"
}
layer {
  name: "conv7_1"
  type: "Convolution"
  bottom: "conv6_2"
  top: "conv7_1"
  param {
    lr_mult: 1
    decay_mult: 1
  }
  param {
    lr_mult: 2
    decay_mult: 0
  }
  convolution_param {
    num_output: 128
    pad: 0
    kernel_size: 1
    stride: 1
    weight_filler {
      type: "xavier"
    }
    bias_filler {
      type: "constant"
      value: 0
    }
  }
}
layer {
  name: "conv7_1_relu"
  type: "ReLU"
  bottom: "conv7_1"
  top: "conv7_1"
}
layer {
  name: "conv7_2"
  type: "Convolution"
  bottom: "conv7_1"
  top: "conv7_2"
  param {
    lr_mult: 1
    decay_mult: 1
  }
  param {
    lr_mult: 2
    decay_mult: 0
  }
  convolution_param {
    num_output: 256
    pad: 1
    kernel_size: 3
    stride: 2
    weight_filler {
      type: "xavier"
    }
    bias_filler {
      type: "constant"
      value: 0
    }
  }
}
layer {
  name: "conv7_2_relu"
  type: "ReLU"
  bottom: "conv7_2"
  top: "conv7_2"
}
layer {
  name: "conv8_1"
  type: "Convolution"
  bottom: "conv7_2"
  top: "conv8_1"
  param {
    lr_mult: 1
    decay_mult: 1
  }
  param {
    lr_mult: 2
    decay_mult: 0
  }
  convolution_param {
    num_output: 128
    pad: 0
    kernel_size: 1
    stride: 1
    weight_filler {
      type: "xavier"
    }
    bias_filler {
      type: "constant"
      value: 0
    }
  }
}
layer {
  name: "conv8_1_relu"
  type: "ReLU"
  bottom: "conv8_1"
  top: "conv8_1"
}
layer {
  name: "conv8_2"
  type: "Convolution"
  bottom: "conv8_1"
  top: "conv8_2"
  param {
    lr_mult: 1
    decay_mult: 1
  }
  param {
    lr_mult: 2
    decay_mult: 0
  }
  convolution_param {
    num_output: 256
    pad: 0
    kernel_size: 3
    stride: 1
    weight_filler {
      type: "xavier"
    }
    bias_filler {
      type: "constant"
      value: 0
    }
  }
}
layer {
  name: "conv8_2_relu"
  type: "ReLU"
  bottom: "conv8_2"
  top: "conv8_2"
}
layer {
  name: "conv9_1"
  type: "Convolution"
  bottom: "conv8_2"
  top: "conv9_1"
  param {
    lr_mult: 1
    decay_mult: 1
  }
  param {
    lr_mult: 2
    decay_mult: 0
  }
  convolution_param {
    num_output: 128
    pad: 0
    kernel_size: 1
    stride: 1
    weight_filler {
      type: "xavier"
    }
    bias_filler {
      type: "constant"
      value: 0
    }
  }
}
layer {
  name: "conv9_1_relu"
  type: "ReLU"
  bottom: "conv9_1"
  top: "conv9_1"
}
layer {
  name: "conv9_2"
  type: "Convolution"
  bottom: "conv9_1"
  top: "conv9_2"
  param {
    lr_mult: 1
    decay_mult: 1
  }
  param {
    lr_mult: 2
    decay_mult: 0
  }
  convolution_param {
    num_output: 256
    pad: 0
    kernel_size: 3
    stride: 1
    weight_filler {
      type: "xavier"
    }
    bias_filler {
      type: "constant"
      value: 0
    }
  }
}
layer {
  name: "conv9_2_relu"
  type: "ReLU"
  bottom: "conv9_2"
  top: "conv9_2"
}
layer {
  name: "conv4_3_norm"
  type: "Normalize"
  bottom: "conv4_3"
  top: "conv4_3_norm"
  norm_param {
    across_spatial: false
    scale_filler {
      type: "constant"
      value: 20
    }
    channel_shared: false
  }
}
layer {
  name: "conv4_3_norm_mbox_loc"
  type: "Convolution"
  bottom: "conv4_3_norm"
  top: "conv4_3_norm_mbox_loc"
  param {
    lr_mult: 1
    decay_mult: 1
  }
  param {
    lr_mult: 2
    decay_mult: 0
  }
  convolution_param {
    num_output: 16
    pad: 1
    kernel_size: 3
    stride: 1
    weight_filler {
      type: "xavier"
    }
    bias_filler {
      type: "constant"
      value: 0
    }
  }
}
layer {
  name: "conv4_3_norm_mbox_priorbox"
  type: "PriorBox"
  bottom: "conv4_3_norm"
  bottom: "data"
  top: "conv4_3_norm_mbox_priorbox"
  prior_box_param {
    min_size: 21
    max_size: 45
    aspect_ratio: 2
    flip: true
    clip: false
    variance: 0.1
    variance: 0.1
    variance: 0.2
    variance: 0.2
    step: 8
    offset: 0.5
  }
}
layer {
  name: "fc7_mbox_loc"
  type: "Convolution"
  bottom: "fc7"
  top: "fc7_mbox_loc"
  param {
    lr_mult: 1
    decay_mult: 1
  }
  param {
    lr_mult: 2
    decay_mult: 0
  }
  convolution_param {
    num_output: 24
    pad: 1
    kernel_size: 3
    stride: 1
    weight_filler {
      type: "xavier"
    }
    bias_filler {
      type: "constant"
      value: 0
    }
  }
}
layer {
  name: "fc7_mbox_conf"
  type: "Convolution"
  bottom: "fc7"
  top: "fc7_mbox_conf"
  param {
    lr_mult: 1
    decay_mult: 1
  }
  param {
    lr_mult: 2
    decay_mult: 0
  }
  convolution_param {
    num_output: 486
    pad: 1
    kernel_size: 3
    stride: 1
    weight_filler {
      type: "xavier"
    }
    bias_filler {
      type: "constant"
      value: 0
    }
  }
}
layer {
  name: "fc7_mbox_priorbox"
  type: "PriorBox"
  bottom: "fc7"
  bottom: "data"
  top: "fc7_mbox_priorbox"
  prior_box_param {
    min_size: 45
    max_size: 99
    aspect_ratio: 2
    aspect_ratio: 3
    flip: true
    clip: false
    variance: 0.1
    variance: 0.1
    variance: 0.2
    variance: 0.2
    step: 16
    offset: 0.5
  }
}
layer {
  name: "conv6_2_mbox_loc"
  type: "Convolution"
  bottom: "conv6_2"
  top: "conv6_2_mbox_loc"
  param {
    lr_mult: 1
    decay_mult: 1
  }
  param {
    lr_mult: 2
    decay_mult: 0
  }
  convolution_param {
    num_output: 24
    pad: 1
    kernel_size: 3
    stride: 1
    weight_filler {
      type: "xavier"
    }
    bias_filler {
      type: "constant"
      value: 0
    }
  }
}
layer {
  name: "conv6_2_mbox_conf"
  type: "Convolution"
  bottom: "conv6_2"
  top: "conv6_2_mbox_conf"
  param {
    lr_mult: 1
    decay_mult: 1
  }
  param {
    lr_mult: 2
    decay_mult: 0
  }
  convolution_param {
    num_output: 486
    pad: 1
    kernel_size: 3
    stride: 1
    weight_filler {
      type: "xavier"
    }
    bias_filler {
      type: "constant"
      value: 0
    }
  }
}
layer {
  name: "conv6_2_mbox_priorbox"
  type: "PriorBox"
  bottom: "conv6_2"
  bottom: "data"
  top: "conv6_2_mbox_priorbox"
  prior_box_param {
    min_size: 99
    max_size: 153
    aspect_ratio: 2
    aspect_ratio: 3
    flip: true
    clip: false
    variance: 0.1
    variance: 0.1
    variance: 0.2
    variance: 0.2
    step: 32
    offset: 0.5
  }
}
layer {
  name: "conv7_2_mbox_loc"
  type: "Convolution"
  bottom: "conv7_2"
  top: "conv7_2_mbox_loc"
  param {
    lr_mult: 1
    decay_mult: 1
  }
  param {
    lr_mult: 2
    decay_mult: 0
  }
  convolution_param {
    num_output: 24
    pad: 1
    kernel_size: 3
    stride: 1
    weight_filler {
      type: "xavier"
    }
    bias_filler {
      type: "constant"
      value: 0
    }
  }
}
layer {
  name: "conv7_2_mbox_conf"
  type: "Convolution"
  bottom: "conv7_2"
  top: "conv7_2_mbox_conf"
  param {
    lr_mult: 1
    decay_mult: 1
  }
  param {
    lr_mult: 2
    decay_mult: 0
  }
  convolution_param {
    num_output: 486
    pad: 1
    kernel_size: 3
    stride: 1
    weight_filler {
      type: "xavier"
    }
    bias_filler {
      type: "constant"
      value: 0
    }
  }
}
layer {
  name: "conv7_2_mbox_priorbox"
  type: "PriorBox"
  bottom: "conv7_2"
  bottom: "data"
  top: "conv7_2_mbox_priorbox"
  prior_box_param {
    min_size: 153
    max_size: 207
    aspect_ratio: 2
    aspect_ratio: 3
    flip: true
    clip: false
    variance: 0.1
    variance: 0.1
    variance: 0.2
    variance: 0.2
    step: 64
    offset: 0.5
  }
}
layer {
  name: "conv8_2_mbox_loc"
  type: "Convolution"
  bottom: "conv8_2"
  top: "conv8_2_mbox_loc"
  param {
    lr_mult: 1
    decay_mult: 1
  }
  param {
    lr_mult: 2
    decay_mult: 0
  }
  convolution_param {
    num_output: 16
    pad: 1
    kernel_size: 3
    stride: 1
    weight_filler {
      type: "xavier"
    }
    bias_filler {
      type: "constant"
      value: 0
    }
  }
}
layer {
  name: "conv8_2_mbox_conf"
  type: "Convolution"
  bottom: "conv8_2"
  top: "conv8_2_mbox_conf"
  param {
    lr_mult: 1
    decay_mult: 1
  }
  param {
    lr_mult: 2
    decay_mult: 0
  }
  convolution_param {
    num_output: 324
    pad: 1
    kernel_size: 3
    stride: 1
    weight_filler {
      type: "xavier"
    }
    bias_filler {
      type: "constant"
      value: 0
    }
  }
}
layer {
  name: "conv8_2_mbox_priorbox"
  type: "PriorBox"
  bottom: "conv8_2"
  bottom: "data"
  top: "conv8_2_mbox_priorbox"
  prior_box_param {
    min_size: 207
    max_size: 261
    aspect_ratio: 2
    flip: true
    clip: false
    variance: 0.1
    variance: 0.1
    variance: 0.2
    variance: 0.2
    step: 100
    offset: 0.5
  }
}
layer {
  name: "conv9_2_mbox_loc"
  type: "Convolution"
  bottom: "conv9_2"
  top: "conv9_2_mbox_loc"
  param {
    lr_mult: 1
    decay_mult: 1
  }
  param {
    lr_mult: 2
    decay_mult: 0
  }
  convolution_param {
    num_output: 16
    pad: 1
    kernel_size: 3
    stride: 1
    weight_filler {
      type: "xavier"
    }
    bias_filler {
      type: "constant"
      value: 0
    }
  }
}
layer {
  name: "conv9_2_mbox_conf"
  type: "Convolution"
  bottom: "conv9_2"
  top: "conv9_2_mbox_conf"
  param {
    lr_mult: 1
    decay_mult: 1
  }
  param {
    lr_mult: 2
    decay_mult: 0
  }
  convolution_param {
    num_output: 324
    pad: 1
    kernel_size: 3
    stride: 1
    weight_filler {
      type: "xavier"
    }
    bias_filler {
      type: "constant"
      value: 0
    }
  }
}
layer {
  name: "conv9_2_mbox_priorbox"
  type: "PriorBox"
  bottom: "conv9_2"
  bottom: "data"
  top: "conv9_2_mbox_priorbox"
  prior_box_param {
    min_size: 261
    max_size: 315
    aspect_ratio: 2
    flip: true
    clip: false
    variance: 0.1
    variance: 0.1
    variance: 0.2
    variance: 0.2
    step: 300
    offset: 0.5
  }
}
layer {
  name: "fc7_mbox_conf_out"
  type: "Deconvolution"
  bottom: "fc7_mbox_conf"
  top: "fc7_mbox_conf_out"
  param {
    lr_mult: 1
    decay_mult: 1
  }
  convolution_param {
    num_output: 32
    bias_term: false
    pad: 0
    kernel_size: 20
    stride: 1
    weight_filler {
      type: "gaussian"
      std: 0.01
    }
    dilation: 1
  }
}
layer {
  name: "fc7_mbox_conf_out_relu"
  type: "ReLU"
  bottom: "fc7_mbox_conf_out"
  top: "fc7_mbox_conf_out"
}
layer {
  name: "conv6_2_mbox_conf_out"
  type: "Deconvolution"
  bottom: "conv6_2_mbox_conf"
  top: "conv6_2_mbox_conf_out"
  param {
    lr_mult: 1
    decay_mult: 1
  }
  convolution_param {
    num_output: 32
    bias_term: false
    pad: 0
    kernel_size: 29
    stride: 1
    weight_filler {
      type: "gaussian"
      std: 0.01
    }
    dilation: 1
  }
}
layer {
  name: "conv6_2_mbox_conf_out_relu"
  type: "ReLU"
  bottom: "conv6_2_mbox_conf_out"
  top: "conv6_2_mbox_conf_out"
}
layer {
  name: "conv7_2_mbox_conf_out"
  type: "Deconvolution"
  bottom: "conv7_2_mbox_conf"
  top: "conv7_2_mbox_conf_out"
  param {
    lr_mult: 1
    decay_mult: 1
  }
  convolution_param {
    num_output: 32
    bias_term: false
    pad: 0
    kernel_size: 34
    stride: 1
    weight_filler {
      type: "gaussian"
      std: 0.01
    }
    dilation: 1
  }
}
layer {
  name: "conv7_2_mbox_conf_out_relu"
  type: "ReLU"
  bottom: "conv7_2_mbox_conf_out"
  top: "conv7_2_mbox_conf_out"
}
layer {
  name: "conv4_3_context"
  type: "Concat"
  bottom: "fc7_mbox_conf_out"
  bottom: "conv6_2_mbox_conf_out"
  bottom: "conv7_2_mbox_conf_out"
  bottom: "conv4_3_norm"
  top: "conv4_3_context"
  concat_param {
    axis: 1
  }
}
layer {
  name: "conv4_3_norm_mbox_conf"
  type: "Convolution"
  bottom: "conv4_3_context"
  top: "conv4_3_norm_mbox_conf"
  param {
    lr_mult: 1
    decay_mult: 1
  }
  param {
    lr_mult: 2
    decay_mult: 0
  }
  convolution_param {
    num_output: 324
    pad: 1
    kernel_size: 3
    stride: 1
    weight_filler {
      type: "xavier"
    }
    bias_filler {
      type: "constant"
      value: 0
    }
  }
}
layer {
  name: "conv4_3_norm_mbox_loc_perm"
  type: "Permute"
  bottom: "conv4_3_norm_mbox_loc"
  top: "conv4_3_norm_mbox_loc_perm"
  permute_param {
    order: 0
    order: 2
    order: 3
    order: 1
  }
}
layer {
  name: "conv4_3_norm_mbox_loc_flat"
  type: "Flatten"
  bottom: "conv4_3_norm_mbox_loc_perm"
  top: "conv4_3_norm_mbox_loc_flat"
  flatten_param {
    axis: 1
  }
}
layer {
  name: "conv4_3_norm_mbox_conf_perm"
  type: "Permute"
  bottom: "conv4_3_norm_mbox_conf"
  top: "conv4_3_norm_mbox_conf_perm"
  permute_param {
    order: 0
    order: 2
    order: 3
    order: 1
  }
}
layer {
  name: "conv4_3_norm_mbox_conf_flat"
  type: "Flatten"
  bottom: "conv4_3_norm_mbox_conf_perm"
  top: "conv4_3_norm_mbox_conf_flat"
  flatten_param {
    axis: 1
  }
}
layer {
  name: "fc7_mbox_loc_perm"
  type: "Permute"
  bottom: "fc7_mbox_loc"
  top: "fc7_mbox_loc_perm"
  permute_param {
    order: 0
    order: 2
    order: 3
    order: 1
  }
}
layer {
  name: "fc7_mbox_loc_flat"
  type: "Flatten"
  bottom: "fc7_mbox_loc_perm"
  top: "fc7_mbox_loc_flat"
  flatten_param {
    axis: 1
  }
}
layer {
  name: "fc7_mbox_conf_perm"
  type: "Permute"
  bottom: "fc7_mbox_conf"
  top: "fc7_mbox_conf_perm"
  permute_param {
    order: 0
    order: 2
    order: 3
    order: 1
  }
}
layer {
  name: "fc7_mbox_conf_flat"
  type: "Flatten"
  bottom: "fc7_mbox_conf_perm"
  top: "fc7_mbox_conf_flat"
  flatten_param {
    axis: 1
  }
}
layer {
  name: "conv6_2_mbox_loc_perm"
  type: "Permute"
  bottom: "conv6_2_mbox_loc"
  top: "conv6_2_mbox_loc_perm"
  permute_param {
    order: 0
    order: 2
    order: 3
    order: 1
  }
}
layer {
  name: "conv6_2_mbox_loc_flat"
  type: "Flatten"
  bottom: "conv6_2_mbox_loc_perm"
  top: "conv6_2_mbox_loc_flat"
  flatten_param {
    axis: 1
  }
}
layer {
  name: "conv6_2_mbox_conf_perm"
  type: "Permute"
  bottom: "conv6_2_mbox_conf"
  top: "conv6_2_mbox_conf_perm"
  permute_param {
    order: 0
    order: 2
    order: 3
    order: 1
  }
}
layer {
  name: "conv6_2_mbox_conf_flat"
  type: "Flatten"
  bottom: "conv6_2_mbox_conf_perm"
  top: "conv6_2_mbox_conf_flat"
  flatten_param {
    axis: 1
  }
}
layer {
  name: "conv7_2_mbox_loc_perm"
  type: "Permute"
  bottom: "conv7_2_mbox_loc"
  top: "conv7_2_mbox_loc_perm"
  permute_param {
    order: 0
    order: 2
    order: 3
    order: 1
  }
}
layer {
  name: "conv7_2_mbox_loc_flat"
  type: "Flatten"
  bottom: "conv7_2_mbox_loc_perm"
  top: "conv7_2_mbox_loc_flat"
  flatten_param {
    axis: 1
  }
}
layer {
  name: "conv7_2_mbox_conf_perm"
  type: "Permute"
  bottom: "conv7_2_mbox_conf"
  top: "conv7_2_mbox_conf_perm"
  permute_param {
    order: 0
    order: 2
    order: 3
    order: 1
  }
}
layer {
  name: "conv7_2_mbox_conf_flat"
  type: "Flatten"
  bottom: "conv7_2_mbox_conf_perm"
  top: "conv7_2_mbox_conf_flat"
  flatten_param {
    axis: 1
  }
}
layer {
  name: "conv8_2_mbox_loc_perm"
  type: "Permute"
  bottom: "conv8_2_mbox_loc"
  top: "conv8_2_mbox_loc_perm"
  permute_param {
    order: 0
    order: 2
    order: 3
    order: 1
  }
}
layer {
  name: "conv8_2_mbox_loc_flat"
  type: "Flatten"
  bottom: "conv8_2_mbox_loc_perm"
  top: "conv8_2_mbox_loc_flat"
  flatten_param {
    axis: 1
  }
}
layer {
  name: "conv8_2_mbox_conf_perm"
  type: "Permute"
  bottom: "conv8_2_mbox_conf"
  top: "conv8_2_mbox_conf_perm"
  permute_param {
    order: 0
    order: 2
    order: 3
    order: 1
  }
}
layer {
  name: "conv8_2_mbox_conf_flat"
  type: "Flatten"
  bottom: "conv8_2_mbox_conf_perm"
  top: "conv8_2_mbox_conf_flat"
  flatten_param {
    axis: 1
  }
}
layer {
  name: "conv9_2_mbox_loc_perm"
  type: "Permute"
  bottom: "conv9_2_mbox_loc"
  top: "conv9_2_mbox_loc_perm"
  permute_param {
    order: 0
    order: 2
    order: 3
    order: 1
  }
}
layer {
  name: "conv9_2_mbox_loc_flat"
  type: "Flatten"
  bottom: "conv9_2_mbox_loc_perm"
  top: "conv9_2_mbox_loc_flat"
  flatten_param {
    axis: 1
  }
}
layer {
  name: "conv9_2_mbox_conf_perm"
  type: "Permute"
  bottom: "conv9_2_mbox_conf"
  top: "conv9_2_mbox_conf_perm"
  permute_param {
    order: 0
    order: 2
    order: 3
    order: 1
  }
}
layer {
  name: "conv9_2_mbox_conf_flat"
  type: "Flatten"
  bottom: "conv9_2_mbox_conf_perm"
  top: "conv9_2_mbox_conf_flat"
  flatten_param {
    axis: 1
  }
}
layer {
  name: "mbox_loc"
  type: "Concat"
  bottom: "conv4_3_norm_mbox_loc_flat"
  bottom: "fc7_mbox_loc_flat"
  bottom: "conv6_2_mbox_loc_flat"
  bottom: "conv7_2_mbox_loc_flat"
  bottom: "conv8_2_mbox_loc_flat"
  bottom: "conv9_2_mbox_loc_flat"
  top: "mbox_loc"
  concat_param {
    axis: 1
  }
}
layer {
  name: "mbox_conf"
  type: "Concat"
  bottom: "conv4_3_norm_mbox_conf_flat"
  bottom: "fc7_mbox_conf_flat"
  bottom: "conv6_2_mbox_conf_flat"
  bottom: "conv7_2_mbox_conf_flat"
  bottom: "conv8_2_mbox_conf_flat"
  bottom: "conv9_2_mbox_conf_flat"
  top: "mbox_conf"
  concat_param {
    axis: 1
  }
}
layer {
  name: "mbox_priorbox"
  type: "Concat"
  bottom: "conv4_3_norm_mbox_priorbox"
  bottom: "fc7_mbox_priorbox"
  bottom: "conv6_2_mbox_priorbox"
  bottom: "conv7_2_mbox_priorbox"
  bottom: "conv8_2_mbox_priorbox"
  bottom: "conv9_2_mbox_priorbox"
  top: "mbox_priorbox"
  concat_param {
    axis: 2
  }
}
layer {
  name: "mbox_loss"
  type: "MultiBoxLoss"
  bottom: "mbox_loc"
  bottom: "mbox_conf"
  bottom: "mbox_priorbox"
  bottom: "label"
  top: "mbox_loss"
  include {
    phase: TRAIN
  }
  propagate_down: true
  propagate_down: true
  propagate_down: false
  propagate_down: false
  loss_param {
    normalization: VALID
  }
  multibox_loss_param {
    loc_loss_type: SMOOTH_L1
    conf_loss_type: SOFTMAX
    loc_weight: 1
    num_classes: 81
    share_location: true
    match_type: PER_PREDICTION
    overlap_threshold: 0.5
    use_prior_for_matching: true
    background_label_id: 0
    use_difficult_gt: false
    neg_pos_ratio: 3
    neg_overlap: 0.5
    code_type: CENTER_SIZE
    ignore_cross_boundary_bbox: false
    mining_type: MAX_NEGATIVE
  }
}
I1125 23:00:18.863792 30031 layer_factory.hpp:77] Creating layer data
I1125 23:00:18.863946 30031 net.cpp:100] Creating Layer data
I1125 23:00:18.863963 30031 net.cpp:408] data -> data
I1125 23:00:18.864055 30031 net.cpp:408] data -> label
I1125 23:00:18.864805 30056 db_lmdb.cpp:35] Opened lmdb examples/coco/coco_train_lmdb
I1125 23:00:18.879045 30031 annotated_data_layer.cpp:62] output data size: 1,3,300,300
I1125 23:00:18.883945 30031 net.cpp:150] Setting up data
I1125 23:00:18.883961 30031 net.cpp:157] Top shape: 1 3 300 300 (270000)
I1125 23:00:18.883966 30031 net.cpp:157] Top shape: 1 1 14 8 (112)
I1125 23:00:18.883970 30031 net.cpp:165] Memory required for data: 1080448
I1125 23:00:18.883976 30031 layer_factory.hpp:77] Creating layer data_data_0_split
I1125 23:00:18.883986 30031 net.cpp:100] Creating Layer data_data_0_split
I1125 23:00:18.883998 30031 net.cpp:434] data_data_0_split <- data
I1125 23:00:18.884052 30031 net.cpp:408] data_data_0_split -> data_data_0_split_0
I1125 23:00:18.884064 30031 net.cpp:408] data_data_0_split -> data_data_0_split_1
I1125 23:00:18.884071 30031 net.cpp:408] data_data_0_split -> data_data_0_split_2
I1125 23:00:18.884147 30031 net.cpp:408] data_data_0_split -> data_data_0_split_3
I1125 23:00:18.884156 30031 net.cpp:408] data_data_0_split -> data_data_0_split_4
I1125 23:00:18.884163 30031 net.cpp:408] data_data_0_split -> data_data_0_split_5
I1125 23:00:18.884169 30031 net.cpp:408] data_data_0_split -> data_data_0_split_6
I1125 23:00:18.884268 30031 net.cpp:150] Setting up data_data_0_split
I1125 23:00:18.884279 30031 net.cpp:157] Top shape: 1 3 300 300 (270000)
I1125 23:00:18.884284 30031 net.cpp:157] Top shape: 1 3 300 300 (270000)
I1125 23:00:18.884287 30031 net.cpp:157] Top shape: 1 3 300 300 (270000)
I1125 23:00:18.884292 30031 net.cpp:157] Top shape: 1 3 300 300 (270000)
I1125 23:00:18.884297 30031 net.cpp:157] Top shape: 1 3 300 300 (270000)
I1125 23:00:18.884301 30031 net.cpp:157] Top shape: 1 3 300 300 (270000)
I1125 23:00:18.884348 30031 net.cpp:157] Top shape: 1 3 300 300 (270000)
I1125 23:00:18.884352 30031 net.cpp:165] Memory required for data: 8640448
I1125 23:00:18.884356 30031 layer_factory.hpp:77] Creating layer conv1_1
I1125 23:00:18.884371 30031 net.cpp:100] Creating Layer conv1_1
I1125 23:00:18.884376 30031 net.cpp:434] conv1_1 <- data_data_0_split_0
I1125 23:00:18.884383 30031 net.cpp:408] conv1_1 -> conv1_1
I1125 23:00:18.885766 30031 net.cpp:150] Setting up conv1_1
I1125 23:00:18.885777 30031 net.cpp:157] Top shape: 1 64 300 300 (5760000)
I1125 23:00:18.885782 30031 net.cpp:165] Memory required for data: 31680448
I1125 23:00:18.885799 30031 layer_factory.hpp:77] Creating layer relu1_1
I1125 23:00:18.885807 30031 net.cpp:100] Creating Layer relu1_1
I1125 23:00:18.885812 30031 net.cpp:434] relu1_1 <- conv1_1
I1125 23:00:18.885818 30031 net.cpp:395] relu1_1 -> conv1_1 (in-place)
I1125 23:00:18.885826 30031 net.cpp:150] Setting up relu1_1
I1125 23:00:18.885830 30031 net.cpp:157] Top shape: 1 64 300 300 (5760000)
I1125 23:00:18.885833 30031 net.cpp:165] Memory required for data: 54720448
I1125 23:00:18.885862 30031 layer_factory.hpp:77] Creating layer conv1_2
I1125 23:00:18.885875 30031 net.cpp:100] Creating Layer conv1_2
I1125 23:00:18.885879 30031 net.cpp:434] conv1_2 <- conv1_1
I1125 23:00:18.885885 30031 net.cpp:408] conv1_2 -> conv1_2
I1125 23:00:18.887313 30031 net.cpp:150] Setting up conv1_2
I1125 23:00:18.887326 30031 net.cpp:157] Top shape: 1 64 300 300 (5760000)
I1125 23:00:18.887329 30031 net.cpp:165] Memory required for data: 77760448
I1125 23:00:18.887338 30031 layer_factory.hpp:77] Creating layer relu1_2
I1125 23:00:18.887346 30031 net.cpp:100] Creating Layer relu1_2
I1125 23:00:18.887351 30031 net.cpp:434] relu1_2 <- conv1_2
I1125 23:00:18.887356 30031 net.cpp:395] relu1_2 -> conv1_2 (in-place)
I1125 23:00:18.887362 30031 net.cpp:150] Setting up relu1_2
I1125 23:00:18.887367 30031 net.cpp:157] Top shape: 1 64 300 300 (5760000)
I1125 23:00:18.887369 30031 net.cpp:165] Memory required for data: 100800448
I1125 23:00:18.887372 30031 layer_factory.hpp:77] Creating layer pool1
I1125 23:00:18.887377 30031 net.cpp:100] Creating Layer pool1
I1125 23:00:18.887380 30031 net.cpp:434] pool1 <- conv1_2
I1125 23:00:18.887387 30031 net.cpp:408] pool1 -> pool1
I1125 23:00:18.887425 30031 net.cpp:150] Setting up pool1
I1125 23:00:18.887431 30031 net.cpp:157] Top shape: 1 64 150 150 (1440000)
I1125 23:00:18.887434 30031 net.cpp:165] Memory required for data: 106560448
I1125 23:00:18.887439 30031 layer_factory.hpp:77] Creating layer conv2_1
I1125 23:00:18.887449 30031 net.cpp:100] Creating Layer conv2_1
I1125 23:00:18.887451 30031 net.cpp:434] conv2_1 <- pool1
I1125 23:00:18.887457 30031 net.cpp:408] conv2_1 -> conv2_1
I1125 23:00:18.887940 30031 net.cpp:150] Setting up conv2_1
I1125 23:00:18.887948 30031 net.cpp:157] Top shape: 1 128 150 150 (2880000)
I1125 23:00:18.887951 30031 net.cpp:165] Memory required for data: 118080448
I1125 23:00:18.887958 30031 layer_factory.hpp:77] Creating layer relu2_1
I1125 23:00:18.887965 30031 net.cpp:100] Creating Layer relu2_1
I1125 23:00:18.887969 30031 net.cpp:434] relu2_1 <- conv2_1
I1125 23:00:18.887974 30031 net.cpp:395] relu2_1 -> conv2_1 (in-place)
I1125 23:00:18.887979 30031 net.cpp:150] Setting up relu2_1
I1125 23:00:18.887984 30031 net.cpp:157] Top shape: 1 128 150 150 (2880000)
I1125 23:00:18.887987 30031 net.cpp:165] Memory required for data: 129600448
I1125 23:00:18.887990 30031 layer_factory.hpp:77] Creating layer conv2_2
I1125 23:00:18.888027 30031 net.cpp:100] Creating Layer conv2_2
I1125 23:00:18.888032 30031 net.cpp:434] conv2_2 <- conv2_1
I1125 23:00:18.888039 30031 net.cpp:408] conv2_2 -> conv2_2
I1125 23:00:18.888881 30031 net.cpp:150] Setting up conv2_2
I1125 23:00:18.888890 30031 net.cpp:157] Top shape: 1 128 150 150 (2880000)
I1125 23:00:18.888893 30031 net.cpp:165] Memory required for data: 141120448
I1125 23:00:18.888897 30031 layer_factory.hpp:77] Creating layer relu2_2
I1125 23:00:18.888902 30031 net.cpp:100] Creating Layer relu2_2
I1125 23:00:18.888906 30031 net.cpp:434] relu2_2 <- conv2_2
I1125 23:00:18.888912 30031 net.cpp:395] relu2_2 -> conv2_2 (in-place)
I1125 23:00:18.888917 30031 net.cpp:150] Setting up relu2_2
I1125 23:00:18.888922 30031 net.cpp:157] Top shape: 1 128 150 150 (2880000)
I1125 23:00:18.888926 30031 net.cpp:165] Memory required for data: 152640448
I1125 23:00:18.888928 30031 layer_factory.hpp:77] Creating layer pool2
I1125 23:00:18.888932 30031 net.cpp:100] Creating Layer pool2
I1125 23:00:18.888936 30031 net.cpp:434] pool2 <- conv2_2
I1125 23:00:18.888939 30031 net.cpp:408] pool2 -> pool2
I1125 23:00:18.888967 30031 net.cpp:150] Setting up pool2
I1125 23:00:18.888972 30031 net.cpp:157] Top shape: 1 128 75 75 (720000)
I1125 23:00:18.888977 30031 net.cpp:165] Memory required for data: 155520448
I1125 23:00:18.888978 30031 layer_factory.hpp:77] Creating layer conv3_1
I1125 23:00:18.888988 30031 net.cpp:100] Creating Layer conv3_1
I1125 23:00:18.888993 30031 net.cpp:434] conv3_1 <- pool2
I1125 23:00:18.888998 30031 net.cpp:408] conv3_1 -> conv3_1
I1125 23:00:18.892535 30031 net.cpp:150] Setting up conv3_1
I1125 23:00:18.892560 30031 net.cpp:157] Top shape: 1 256 75 75 (1440000)
I1125 23:00:18.892565 30031 net.cpp:165] Memory required for data: 161280448
I1125 23:00:18.892575 30031 layer_factory.hpp:77] Creating layer relu3_1
I1125 23:00:18.892581 30031 net.cpp:100] Creating Layer relu3_1
I1125 23:00:18.892586 30031 net.cpp:434] relu3_1 <- conv3_1
I1125 23:00:18.892591 30031 net.cpp:395] relu3_1 -> conv3_1 (in-place)
I1125 23:00:18.892597 30031 net.cpp:150] Setting up relu3_1
I1125 23:00:18.892602 30031 net.cpp:157] Top shape: 1 256 75 75 (1440000)
I1125 23:00:18.892606 30031 net.cpp:165] Memory required for data: 167040448
I1125 23:00:18.892608 30031 layer_factory.hpp:77] Creating layer conv3_2
I1125 23:00:18.892617 30031 net.cpp:100] Creating Layer conv3_2
I1125 23:00:18.892621 30031 net.cpp:434] conv3_2 <- conv3_1
I1125 23:00:18.892628 30031 net.cpp:408] conv3_2 -> conv3_2
I1125 23:00:18.896458 30031 net.cpp:150] Setting up conv3_2
I1125 23:00:18.896471 30031 net.cpp:157] Top shape: 1 256 75 75 (1440000)
I1125 23:00:18.896474 30031 net.cpp:165] Memory required for data: 172800448
I1125 23:00:18.896481 30031 layer_factory.hpp:77] Creating layer relu3_2
I1125 23:00:18.896489 30031 net.cpp:100] Creating Layer relu3_2
I1125 23:00:18.896493 30031 net.cpp:434] relu3_2 <- conv3_2
I1125 23:00:18.896498 30031 net.cpp:395] relu3_2 -> conv3_2 (in-place)
I1125 23:00:18.896504 30031 net.cpp:150] Setting up relu3_2
I1125 23:00:18.896509 30031 net.cpp:157] Top shape: 1 256 75 75 (1440000)
I1125 23:00:18.896512 30031 net.cpp:165] Memory required for data: 178560448
I1125 23:00:18.896515 30031 layer_factory.hpp:77] Creating layer conv3_3
I1125 23:00:18.896526 30031 net.cpp:100] Creating Layer conv3_3
I1125 23:00:18.896530 30031 net.cpp:434] conv3_3 <- conv3_2
I1125 23:00:18.896535 30031 net.cpp:408] conv3_3 -> conv3_3
I1125 23:00:18.900403 30031 net.cpp:150] Setting up conv3_3
I1125 23:00:18.900415 30031 net.cpp:157] Top shape: 1 256 75 75 (1440000)
I1125 23:00:18.900419 30031 net.cpp:165] Memory required for data: 184320448
I1125 23:00:18.900426 30031 layer_factory.hpp:77] Creating layer relu3_3
I1125 23:00:18.900434 30031 net.cpp:100] Creating Layer relu3_3
I1125 23:00:18.900439 30031 net.cpp:434] relu3_3 <- conv3_3
I1125 23:00:18.900442 30031 net.cpp:395] relu3_3 -> conv3_3 (in-place)
I1125 23:00:18.900449 30031 net.cpp:150] Setting up relu3_3
I1125 23:00:18.900454 30031 net.cpp:157] Top shape: 1 256 75 75 (1440000)
I1125 23:00:18.900457 30031 net.cpp:165] Memory required for data: 190080448
I1125 23:00:18.900460 30031 layer_factory.hpp:77] Creating layer pool3
I1125 23:00:18.900465 30031 net.cpp:100] Creating Layer pool3
I1125 23:00:18.900467 30031 net.cpp:434] pool3 <- conv3_3
I1125 23:00:18.900475 30031 net.cpp:408] pool3 -> pool3
I1125 23:00:18.900506 30031 net.cpp:150] Setting up pool3
I1125 23:00:18.900511 30031 net.cpp:157] Top shape: 1 256 38 38 (369664)
I1125 23:00:18.900513 30031 net.cpp:165] Memory required for data: 191559104
I1125 23:00:18.900517 30031 layer_factory.hpp:77] Creating layer conv4_1
I1125 23:00:18.900527 30031 net.cpp:100] Creating Layer conv4_1
I1125 23:00:18.900532 30031 net.cpp:434] conv4_1 <- pool3
I1125 23:00:18.900537 30031 net.cpp:408] conv4_1 -> conv4_1
I1125 23:00:18.908795 30031 net.cpp:150] Setting up conv4_1
I1125 23:00:18.908808 30031 net.cpp:157] Top shape: 1 512 38 38 (739328)
I1125 23:00:18.908812 30031 net.cpp:165] Memory required for data: 194516416
I1125 23:00:18.908818 30031 layer_factory.hpp:77] Creating layer relu4_1
I1125 23:00:18.908825 30031 net.cpp:100] Creating Layer relu4_1
I1125 23:00:18.908828 30031 net.cpp:434] relu4_1 <- conv4_1
I1125 23:00:18.908835 30031 net.cpp:395] relu4_1 -> conv4_1 (in-place)
I1125 23:00:18.908841 30031 net.cpp:150] Setting up relu4_1
I1125 23:00:18.908846 30031 net.cpp:157] Top shape: 1 512 38 38 (739328)
I1125 23:00:18.908850 30031 net.cpp:165] Memory required for data: 197473728
I1125 23:00:18.908852 30031 layer_factory.hpp:77] Creating layer conv4_2
I1125 23:00:18.908861 30031 net.cpp:100] Creating Layer conv4_2
I1125 23:00:18.908865 30031 net.cpp:434] conv4_2 <- conv4_1
I1125 23:00:18.908884 30031 net.cpp:408] conv4_2 -> conv4_2
I1125 23:00:18.924474 30031 net.cpp:150] Setting up conv4_2
I1125 23:00:18.924502 30031 net.cpp:157] Top shape: 1 512 38 38 (739328)
I1125 23:00:18.924505 30031 net.cpp:165] Memory required for data: 200431040
I1125 23:00:18.924960 30031 layer_factory.hpp:77] Creating layer relu4_2
I1125 23:00:18.924970 30031 net.cpp:100] Creating Layer relu4_2
I1125 23:00:18.924975 30031 net.cpp:434] relu4_2 <- conv4_2
I1125 23:00:18.926049 30031 net.cpp:395] relu4_2 -> conv4_2 (in-place)
I1125 23:00:18.926060 30031 net.cpp:150] Setting up relu4_2
I1125 23:00:18.926065 30031 net.cpp:157] Top shape: 1 512 38 38 (739328)
I1125 23:00:18.926069 30031 net.cpp:165] Memory required for data: 203388352
I1125 23:00:18.926074 30031 layer_factory.hpp:77] Creating layer conv4_3
I1125 23:00:18.926623 30031 net.cpp:100] Creating Layer conv4_3
I1125 23:00:18.926630 30031 net.cpp:434] conv4_3 <- conv4_2
I1125 23:00:18.926636 30031 net.cpp:408] conv4_3 -> conv4_3
I1125 23:00:18.945684 30031 net.cpp:150] Setting up conv4_3
I1125 23:00:18.945705 30031 net.cpp:157] Top shape: 1 512 38 38 (739328)
I1125 23:00:18.945708 30031 net.cpp:165] Memory required for data: 206345664
I1125 23:00:18.945715 30031 layer_factory.hpp:77] Creating layer relu4_3
I1125 23:00:18.945721 30031 net.cpp:100] Creating Layer relu4_3
I1125 23:00:18.945724 30031 net.cpp:434] relu4_3 <- conv4_3
I1125 23:00:18.945729 30031 net.cpp:395] relu4_3 -> conv4_3 (in-place)
I1125 23:00:18.945735 30031 net.cpp:150] Setting up relu4_3
I1125 23:00:18.945742 30031 net.cpp:157] Top shape: 1 512 38 38 (739328)
I1125 23:00:18.945745 30031 net.cpp:165] Memory required for data: 209302976
I1125 23:00:18.945749 30031 layer_factory.hpp:77] Creating layer conv4_3_relu4_3_0_split
I1125 23:00:18.945753 30031 net.cpp:100] Creating Layer conv4_3_relu4_3_0_split
I1125 23:00:18.945757 30031 net.cpp:434] conv4_3_relu4_3_0_split <- conv4_3
I1125 23:00:18.945763 30031 net.cpp:408] conv4_3_relu4_3_0_split -> conv4_3_relu4_3_0_split_0
I1125 23:00:18.945770 30031 net.cpp:408] conv4_3_relu4_3_0_split -> conv4_3_relu4_3_0_split_1
I1125 23:00:18.945802 30031 net.cpp:150] Setting up conv4_3_relu4_3_0_split
I1125 23:00:18.945809 30031 net.cpp:157] Top shape: 1 512 38 38 (739328)
I1125 23:00:18.945813 30031 net.cpp:157] Top shape: 1 512 38 38 (739328)
I1125 23:00:18.945816 30031 net.cpp:165] Memory required for data: 215217600
I1125 23:00:18.945819 30031 layer_factory.hpp:77] Creating layer pool4
I1125 23:00:18.945825 30031 net.cpp:100] Creating Layer pool4
I1125 23:00:18.945832 30031 net.cpp:434] pool4 <- conv4_3_relu4_3_0_split_0
I1125 23:00:18.945837 30031 net.cpp:408] pool4 -> pool4
I1125 23:00:18.945869 30031 net.cpp:150] Setting up pool4
I1125 23:00:18.945876 30031 net.cpp:157] Top shape: 1 512 19 19 (184832)
I1125 23:00:18.945879 30031 net.cpp:165] Memory required for data: 215956928
I1125 23:00:18.945881 30031 layer_factory.hpp:77] Creating layer conv5_1
I1125 23:00:18.945891 30031 net.cpp:100] Creating Layer conv5_1
I1125 23:00:18.945895 30031 net.cpp:434] conv5_1 <- pool4
I1125 23:00:18.945904 30031 net.cpp:408] conv5_1 -> conv5_1
I1125 23:00:18.959883 30031 net.cpp:150] Setting up conv5_1
I1125 23:00:18.959898 30031 net.cpp:157] Top shape: 1 512 19 19 (184832)
I1125 23:00:18.959903 30031 net.cpp:165] Memory required for data: 216696256
I1125 23:00:18.959909 30031 layer_factory.hpp:77] Creating layer relu5_1
I1125 23:00:18.959916 30031 net.cpp:100] Creating Layer relu5_1
I1125 23:00:18.959920 30031 net.cpp:434] relu5_1 <- conv5_1
I1125 23:00:18.959925 30031 net.cpp:395] relu5_1 -> conv5_1 (in-place)
I1125 23:00:18.959933 30031 net.cpp:150] Setting up relu5_1
I1125 23:00:18.959936 30031 net.cpp:157] Top shape: 1 512 19 19 (184832)
I1125 23:00:18.959939 30031 net.cpp:165] Memory required for data: 217435584
I1125 23:00:18.959944 30031 layer_factory.hpp:77] Creating layer conv5_2
I1125 23:00:18.959952 30031 net.cpp:100] Creating Layer conv5_2
I1125 23:00:18.959955 30031 net.cpp:434] conv5_2 <- conv5_1
I1125 23:00:18.959962 30031 net.cpp:408] conv5_2 -> conv5_2
I1125 23:00:18.974627 30031 net.cpp:150] Setting up conv5_2
I1125 23:00:18.974642 30031 net.cpp:157] Top shape: 1 512 19 19 (184832)
I1125 23:00:18.974644 30031 net.cpp:165] Memory required for data: 218174912
I1125 23:00:18.974651 30031 layer_factory.hpp:77] Creating layer relu5_2
I1125 23:00:18.974658 30031 net.cpp:100] Creating Layer relu5_2
I1125 23:00:18.974663 30031 net.cpp:434] relu5_2 <- conv5_2
I1125 23:00:18.974670 30031 net.cpp:395] relu5_2 -> conv5_2 (in-place)
I1125 23:00:18.974678 30031 net.cpp:150] Setting up relu5_2
I1125 23:00:18.974683 30031 net.cpp:157] Top shape: 1 512 19 19 (184832)
I1125 23:00:18.974686 30031 net.cpp:165] Memory required for data: 218914240
I1125 23:00:18.974689 30031 layer_factory.hpp:77] Creating layer conv5_3
I1125 23:00:18.974699 30031 net.cpp:100] Creating Layer conv5_3
I1125 23:00:18.974702 30031 net.cpp:434] conv5_3 <- conv5_2
I1125 23:00:18.974720 30031 net.cpp:408] conv5_3 -> conv5_3
I1125 23:00:18.989238 30031 net.cpp:150] Setting up conv5_3
I1125 23:00:18.989253 30031 net.cpp:157] Top shape: 1 512 19 19 (184832)
I1125 23:00:18.989256 30031 net.cpp:165] Memory required for data: 219653568
I1125 23:00:18.989262 30031 layer_factory.hpp:77] Creating layer relu5_3
I1125 23:00:18.989277 30031 net.cpp:100] Creating Layer relu5_3
I1125 23:00:18.989282 30031 net.cpp:434] relu5_3 <- conv5_3
I1125 23:00:18.989287 30031 net.cpp:395] relu5_3 -> conv5_3 (in-place)
I1125 23:00:18.989295 30031 net.cpp:150] Setting up relu5_3
I1125 23:00:18.989298 30031 net.cpp:157] Top shape: 1 512 19 19 (184832)
I1125 23:00:18.989301 30031 net.cpp:165] Memory required for data: 220392896
I1125 23:00:18.989305 30031 layer_factory.hpp:77] Creating layer pool5
I1125 23:00:18.989316 30031 net.cpp:100] Creating Layer pool5
I1125 23:00:18.989320 30031 net.cpp:434] pool5 <- conv5_3
I1125 23:00:18.989325 30031 net.cpp:408] pool5 -> pool5
I1125 23:00:18.989356 30031 net.cpp:150] Setting up pool5
I1125 23:00:18.989362 30031 net.cpp:157] Top shape: 1 512 19 19 (184832)
I1125 23:00:18.989364 30031 net.cpp:165] Memory required for data: 221132224
I1125 23:00:18.989367 30031 layer_factory.hpp:77] Creating layer fc6
I1125 23:00:18.989377 30031 net.cpp:100] Creating Layer fc6
I1125 23:00:18.989382 30031 net.cpp:434] fc6 <- pool5
I1125 23:00:18.989387 30031 net.cpp:408] fc6 -> fc6
I1125 23:00:19.017356 30031 net.cpp:150] Setting up fc6
I1125 23:00:19.017383 30031 net.cpp:157] Top shape: 1 1024 19 19 (369664)
I1125 23:00:19.017387 30031 net.cpp:165] Memory required for data: 222610880
I1125 23:00:19.017396 30031 layer_factory.hpp:77] Creating layer relu6
I1125 23:00:19.017405 30031 net.cpp:100] Creating Layer relu6
I1125 23:00:19.017410 30031 net.cpp:434] relu6 <- fc6
I1125 23:00:19.017416 30031 net.cpp:395] relu6 -> fc6 (in-place)
I1125 23:00:19.017424 30031 net.cpp:150] Setting up relu6
I1125 23:00:19.017428 30031 net.cpp:157] Top shape: 1 1024 19 19 (369664)
I1125 23:00:19.017432 30031 net.cpp:165] Memory required for data: 224089536
I1125 23:00:19.017436 30031 layer_factory.hpp:77] Creating layer fc7
I1125 23:00:19.017444 30031 net.cpp:100] Creating Layer fc7
I1125 23:00:19.017448 30031 net.cpp:434] fc7 <- fc6
I1125 23:00:19.017458 30031 net.cpp:408] fc7 -> fc7
I1125 23:00:19.023934 30031 net.cpp:150] Setting up fc7
I1125 23:00:19.023948 30031 net.cpp:157] Top shape: 1 1024 19 19 (369664)
I1125 23:00:19.023952 30031 net.cpp:165] Memory required for data: 225568192
I1125 23:00:19.023958 30031 layer_factory.hpp:77] Creating layer relu7
I1125 23:00:19.023967 30031 net.cpp:100] Creating Layer relu7
I1125 23:00:19.023970 30031 net.cpp:434] relu7 <- fc7
I1125 23:00:19.023975 30031 net.cpp:395] relu7 -> fc7 (in-place)
I1125 23:00:19.023983 30031 net.cpp:150] Setting up relu7
I1125 23:00:19.023986 30031 net.cpp:157] Top shape: 1 1024 19 19 (369664)
I1125 23:00:19.023989 30031 net.cpp:165] Memory required for data: 227046848
I1125 23:00:19.023996 30031 layer_factory.hpp:77] Creating layer fc7_relu7_0_split
I1125 23:00:19.024021 30031 net.cpp:100] Creating Layer fc7_relu7_0_split
I1125 23:00:19.024050 30031 net.cpp:434] fc7_relu7_0_split <- fc7
I1125 23:00:19.024055 30031 net.cpp:408] fc7_relu7_0_split -> fc7_relu7_0_split_0
I1125 23:00:19.024063 30031 net.cpp:408] fc7_relu7_0_split -> fc7_relu7_0_split_1
I1125 23:00:19.024077 30031 net.cpp:408] fc7_relu7_0_split -> fc7_relu7_0_split_2
I1125 23:00:19.024085 30031 net.cpp:408] fc7_relu7_0_split -> fc7_relu7_0_split_3
I1125 23:00:19.024132 30031 net.cpp:150] Setting up fc7_relu7_0_split
I1125 23:00:19.024138 30031 net.cpp:157] Top shape: 1 1024 19 19 (369664)
I1125 23:00:19.024145 30031 net.cpp:157] Top shape: 1 1024 19 19 (369664)
I1125 23:00:19.024149 30031 net.cpp:157] Top shape: 1 1024 19 19 (369664)
I1125 23:00:19.024153 30031 net.cpp:157] Top shape: 1 1024 19 19 (369664)
I1125 23:00:19.024158 30031 net.cpp:165] Memory required for data: 232961472
I1125 23:00:19.024161 30031 layer_factory.hpp:77] Creating layer conv6_1
I1125 23:00:19.024169 30031 net.cpp:100] Creating Layer conv6_1
I1125 23:00:19.024173 30031 net.cpp:434] conv6_1 <- fc7_relu7_0_split_0
I1125 23:00:19.024181 30031 net.cpp:408] conv6_1 -> conv6_1
I1125 23:00:19.026540 30031 net.cpp:150] Setting up conv6_1
I1125 23:00:19.026552 30031 net.cpp:157] Top shape: 1 256 19 19 (92416)
I1125 23:00:19.026556 30031 net.cpp:165] Memory required for data: 233331136
I1125 23:00:19.026561 30031 layer_factory.hpp:77] Creating layer conv6_1_relu
I1125 23:00:19.026567 30031 net.cpp:100] Creating Layer conv6_1_relu
I1125 23:00:19.026571 30031 net.cpp:434] conv6_1_relu <- conv6_1
I1125 23:00:19.026578 30031 net.cpp:395] conv6_1_relu -> conv6_1 (in-place)
I1125 23:00:19.026584 30031 net.cpp:150] Setting up conv6_1_relu
I1125 23:00:19.026589 30031 net.cpp:157] Top shape: 1 256 19 19 (92416)
I1125 23:00:19.026592 30031 net.cpp:165] Memory required for data: 233700800
I1125 23:00:19.026595 30031 layer_factory.hpp:77] Creating layer conv6_2
I1125 23:00:19.026603 30031 net.cpp:100] Creating Layer conv6_2
I1125 23:00:19.026607 30031 net.cpp:434] conv6_2 <- conv6_1
I1125 23:00:19.026612 30031 net.cpp:408] conv6_2 -> conv6_2
I1125 23:00:19.033810 30031 net.cpp:150] Setting up conv6_2
I1125 23:00:19.033823 30031 net.cpp:157] Top shape: 1 512 10 10 (51200)
I1125 23:00:19.033828 30031 net.cpp:165] Memory required for data: 233905600
I1125 23:00:19.033840 30031 layer_factory.hpp:77] Creating layer conv6_2_relu
I1125 23:00:19.033848 30031 net.cpp:100] Creating Layer conv6_2_relu
I1125 23:00:19.033854 30031 net.cpp:434] conv6_2_relu <- conv6_2
I1125 23:00:19.033859 30031 net.cpp:395] conv6_2_relu -> conv6_2 (in-place)
I1125 23:00:19.033865 30031 net.cpp:150] Setting up conv6_2_relu
I1125 23:00:19.033869 30031 net.cpp:157] Top shape: 1 512 10 10 (51200)
I1125 23:00:19.033872 30031 net.cpp:165] Memory required for data: 234110400
I1125 23:00:19.033876 30031 layer_factory.hpp:77] Creating layer conv6_2_conv6_2_relu_0_split
I1125 23:00:19.033881 30031 net.cpp:100] Creating Layer conv6_2_conv6_2_relu_0_split
I1125 23:00:19.033885 30031 net.cpp:434] conv6_2_conv6_2_relu_0_split <- conv6_2
I1125 23:00:19.033895 30031 net.cpp:408] conv6_2_conv6_2_relu_0_split -> conv6_2_conv6_2_relu_0_split_0
I1125 23:00:19.033901 30031 net.cpp:408] conv6_2_conv6_2_relu_0_split -> conv6_2_conv6_2_relu_0_split_1
I1125 23:00:19.033907 30031 net.cpp:408] conv6_2_conv6_2_relu_0_split -> conv6_2_conv6_2_relu_0_split_2
I1125 23:00:19.033912 30031 net.cpp:408] conv6_2_conv6_2_relu_0_split -> conv6_2_conv6_2_relu_0_split_3
I1125 23:00:19.033963 30031 net.cpp:150] Setting up conv6_2_conv6_2_relu_0_split
I1125 23:00:19.033969 30031 net.cpp:157] Top shape: 1 512 10 10 (51200)
I1125 23:00:19.033973 30031 net.cpp:157] Top shape: 1 512 10 10 (51200)
I1125 23:00:19.033977 30031 net.cpp:157] Top shape: 1 512 10 10 (51200)
I1125 23:00:19.033982 30031 net.cpp:157] Top shape: 1 512 10 10 (51200)
I1125 23:00:19.033984 30031 net.cpp:165] Memory required for data: 234929600
I1125 23:00:19.033987 30031 layer_factory.hpp:77] Creating layer conv7_1
I1125 23:00:19.033996 30031 net.cpp:100] Creating Layer conv7_1
I1125 23:00:19.034000 30031 net.cpp:434] conv7_1 <- conv6_2_conv6_2_relu_0_split_0
I1125 23:00:19.034023 30031 net.cpp:408] conv7_1 -> conv7_1
I1125 23:00:19.034499 30031 net.cpp:150] Setting up conv7_1
I1125 23:00:19.034507 30031 net.cpp:157] Top shape: 1 128 10 10 (12800)
I1125 23:00:19.034509 30031 net.cpp:165] Memory required for data: 234980800
I1125 23:00:19.034515 30031 layer_factory.hpp:77] Creating layer conv7_1_relu
I1125 23:00:19.034520 30031 net.cpp:100] Creating Layer conv7_1_relu
I1125 23:00:19.034524 30031 net.cpp:434] conv7_1_relu <- conv7_1
I1125 23:00:19.034530 30031 net.cpp:395] conv7_1_relu -> conv7_1 (in-place)
I1125 23:00:19.034536 30031 net.cpp:150] Setting up conv7_1_relu
I1125 23:00:19.034540 30031 net.cpp:157] Top shape: 1 128 10 10 (12800)
I1125 23:00:19.034543 30031 net.cpp:165] Memory required for data: 235032000
I1125 23:00:19.034546 30031 layer_factory.hpp:77] Creating layer conv7_2
I1125 23:00:19.034554 30031 net.cpp:100] Creating Layer conv7_2
I1125 23:00:19.034559 30031 net.cpp:434] conv7_2 <- conv7_1
I1125 23:00:19.034562 30031 net.cpp:408] conv7_2 -> conv7_2
I1125 23:00:19.037077 30031 net.cpp:150] Setting up conv7_2
I1125 23:00:19.037091 30031 net.cpp:157] Top shape: 1 256 5 5 (6400)
I1125 23:00:19.037093 30031 net.cpp:165] Memory required for data: 235057600
I1125 23:00:19.037099 30031 layer_factory.hpp:77] Creating layer conv7_2_relu
I1125 23:00:19.037107 30031 net.cpp:100] Creating Layer conv7_2_relu
I1125 23:00:19.037111 30031 net.cpp:434] conv7_2_relu <- conv7_2
I1125 23:00:19.037117 30031 net.cpp:395] conv7_2_relu -> conv7_2 (in-place)
I1125 23:00:19.037122 30031 net.cpp:150] Setting up conv7_2_relu
I1125 23:00:19.037127 30031 net.cpp:157] Top shape: 1 256 5 5 (6400)
I1125 23:00:19.037130 30031 net.cpp:165] Memory required for data: 235083200
I1125 23:00:19.037133 30031 layer_factory.hpp:77] Creating layer conv7_2_conv7_2_relu_0_split
I1125 23:00:19.037140 30031 net.cpp:100] Creating Layer conv7_2_conv7_2_relu_0_split
I1125 23:00:19.037143 30031 net.cpp:434] conv7_2_conv7_2_relu_0_split <- conv7_2
I1125 23:00:19.037148 30031 net.cpp:408] conv7_2_conv7_2_relu_0_split -> conv7_2_conv7_2_relu_0_split_0
I1125 23:00:19.037154 30031 net.cpp:408] conv7_2_conv7_2_relu_0_split -> conv7_2_conv7_2_relu_0_split_1
I1125 23:00:19.037163 30031 net.cpp:408] conv7_2_conv7_2_relu_0_split -> conv7_2_conv7_2_relu_0_split_2
I1125 23:00:19.037169 30031 net.cpp:408] conv7_2_conv7_2_relu_0_split -> conv7_2_conv7_2_relu_0_split_3
I1125 23:00:19.037219 30031 net.cpp:150] Setting up conv7_2_conv7_2_relu_0_split
I1125 23:00:19.037223 30031 net.cpp:157] Top shape: 1 256 5 5 (6400)
I1125 23:00:19.037227 30031 net.cpp:157] Top shape: 1 256 5 5 (6400)
I1125 23:00:19.037231 30031 net.cpp:157] Top shape: 1 256 5 5 (6400)
I1125 23:00:19.037235 30031 net.cpp:157] Top shape: 1 256 5 5 (6400)
I1125 23:00:19.037238 30031 net.cpp:165] Memory required for data: 235185600
I1125 23:00:19.037242 30031 layer_factory.hpp:77] Creating layer conv8_1
I1125 23:00:19.037252 30031 net.cpp:100] Creating Layer conv8_1
I1125 23:00:19.037257 30031 net.cpp:434] conv8_1 <- conv7_2_conv7_2_relu_0_split_0
I1125 23:00:19.037263 30031 net.cpp:408] conv8_1 -> conv8_1
I1125 23:00:19.037577 30031 net.cpp:150] Setting up conv8_1
I1125 23:00:19.037585 30031 net.cpp:157] Top shape: 1 128 5 5 (3200)
I1125 23:00:19.037587 30031 net.cpp:165] Memory required for data: 235198400
I1125 23:00:19.037592 30031 layer_factory.hpp:77] Creating layer conv8_1_relu
I1125 23:00:19.037598 30031 net.cpp:100] Creating Layer conv8_1_relu
I1125 23:00:19.037602 30031 net.cpp:434] conv8_1_relu <- conv8_1
I1125 23:00:19.037607 30031 net.cpp:395] conv8_1_relu -> conv8_1 (in-place)
I1125 23:00:19.037612 30031 net.cpp:150] Setting up conv8_1_relu
I1125 23:00:19.037616 30031 net.cpp:157] Top shape: 1 128 5 5 (3200)
I1125 23:00:19.037619 30031 net.cpp:165] Memory required for data: 235211200
I1125 23:00:19.037623 30031 layer_factory.hpp:77] Creating layer conv8_2
I1125 23:00:19.037631 30031 net.cpp:100] Creating Layer conv8_2
I1125 23:00:19.037634 30031 net.cpp:434] conv8_2 <- conv8_1
I1125 23:00:19.037641 30031 net.cpp:408] conv8_2 -> conv8_2
I1125 23:00:19.040146 30031 net.cpp:150] Setting up conv8_2
I1125 23:00:19.040158 30031 net.cpp:157] Top shape: 1 256 3 3 (2304)
I1125 23:00:19.040163 30031 net.cpp:165] Memory required for data: 235220416
I1125 23:00:19.040169 30031 layer_factory.hpp:77] Creating layer conv8_2_relu
I1125 23:00:19.040175 30031 net.cpp:100] Creating Layer conv8_2_relu
I1125 23:00:19.040179 30031 net.cpp:434] conv8_2_relu <- conv8_2
I1125 23:00:19.040184 30031 net.cpp:395] conv8_2_relu -> conv8_2 (in-place)
I1125 23:00:19.040190 30031 net.cpp:150] Setting up conv8_2_relu
I1125 23:00:19.040195 30031 net.cpp:157] Top shape: 1 256 3 3 (2304)
I1125 23:00:19.040199 30031 net.cpp:165] Memory required for data: 235229632
I1125 23:00:19.040200 30031 layer_factory.hpp:77] Creating layer conv8_2_conv8_2_relu_0_split
I1125 23:00:19.040207 30031 net.cpp:100] Creating Layer conv8_2_conv8_2_relu_0_split
I1125 23:00:19.040211 30031 net.cpp:434] conv8_2_conv8_2_relu_0_split <- conv8_2
I1125 23:00:19.040217 30031 net.cpp:408] conv8_2_conv8_2_relu_0_split -> conv8_2_conv8_2_relu_0_split_0
I1125 23:00:19.040223 30031 net.cpp:408] conv8_2_conv8_2_relu_0_split -> conv8_2_conv8_2_relu_0_split_1
I1125 23:00:19.040230 30031 net.cpp:408] conv8_2_conv8_2_relu_0_split -> conv8_2_conv8_2_relu_0_split_2
I1125 23:00:19.040235 30031 net.cpp:408] conv8_2_conv8_2_relu_0_split -> conv8_2_conv8_2_relu_0_split_3
I1125 23:00:19.040282 30031 net.cpp:150] Setting up conv8_2_conv8_2_relu_0_split
I1125 23:00:19.040290 30031 net.cpp:157] Top shape: 1 256 3 3 (2304)
I1125 23:00:19.040294 30031 net.cpp:157] Top shape: 1 256 3 3 (2304)
I1125 23:00:19.040298 30031 net.cpp:157] Top shape: 1 256 3 3 (2304)
I1125 23:00:19.040302 30031 net.cpp:157] Top shape: 1 256 3 3 (2304)
I1125 23:00:19.040305 30031 net.cpp:165] Memory required for data: 235266496
I1125 23:00:19.040309 30031 layer_factory.hpp:77] Creating layer conv9_1
I1125 23:00:19.040318 30031 net.cpp:100] Creating Layer conv9_1
I1125 23:00:19.040321 30031 net.cpp:434] conv9_1 <- conv8_2_conv8_2_relu_0_split_0
I1125 23:00:19.040329 30031 net.cpp:408] conv9_1 -> conv9_1
I1125 23:00:19.040644 30031 net.cpp:150] Setting up conv9_1
I1125 23:00:19.040652 30031 net.cpp:157] Top shape: 1 128 3 3 (1152)
I1125 23:00:19.040655 30031 net.cpp:165] Memory required for data: 235271104
I1125 23:00:19.040659 30031 layer_factory.hpp:77] Creating layer conv9_1_relu
I1125 23:00:19.040666 30031 net.cpp:100] Creating Layer conv9_1_relu
I1125 23:00:19.040670 30031 net.cpp:434] conv9_1_relu <- conv9_1
I1125 23:00:19.040675 30031 net.cpp:395] conv9_1_relu -> conv9_1 (in-place)
I1125 23:00:19.040680 30031 net.cpp:150] Setting up conv9_1_relu
I1125 23:00:19.040684 30031 net.cpp:157] Top shape: 1 128 3 3 (1152)
I1125 23:00:19.040688 30031 net.cpp:165] Memory required for data: 235275712
I1125 23:00:19.040690 30031 layer_factory.hpp:77] Creating layer conv9_2
I1125 23:00:19.040699 30031 net.cpp:100] Creating Layer conv9_2
I1125 23:00:19.040701 30031 net.cpp:434] conv9_2 <- conv9_1
I1125 23:00:19.040709 30031 net.cpp:408] conv9_2 -> conv9_2
I1125 23:00:19.043172 30031 net.cpp:150] Setting up conv9_2
I1125 23:00:19.043184 30031 net.cpp:157] Top shape: 1 256 1 1 (256)
I1125 23:00:19.043187 30031 net.cpp:165] Memory required for data: 235276736
I1125 23:00:19.043195 30031 layer_factory.hpp:77] Creating layer conv9_2_relu
I1125 23:00:19.043200 30031 net.cpp:100] Creating Layer conv9_2_relu
I1125 23:00:19.043205 30031 net.cpp:434] conv9_2_relu <- conv9_2
I1125 23:00:19.043210 30031 net.cpp:395] conv9_2_relu -> conv9_2 (in-place)
I1125 23:00:19.043217 30031 net.cpp:150] Setting up conv9_2_relu
I1125 23:00:19.043221 30031 net.cpp:157] Top shape: 1 256 1 1 (256)
I1125 23:00:19.043225 30031 net.cpp:165] Memory required for data: 235277760
I1125 23:00:19.043227 30031 layer_factory.hpp:77] Creating layer conv9_2_conv9_2_relu_0_split
I1125 23:00:19.043232 30031 net.cpp:100] Creating Layer conv9_2_conv9_2_relu_0_split
I1125 23:00:19.043236 30031 net.cpp:434] conv9_2_conv9_2_relu_0_split <- conv9_2
I1125 23:00:19.043241 30031 net.cpp:408] conv9_2_conv9_2_relu_0_split -> conv9_2_conv9_2_relu_0_split_0
I1125 23:00:19.043259 30031 net.cpp:408] conv9_2_conv9_2_relu_0_split -> conv9_2_conv9_2_relu_0_split_1
I1125 23:00:19.043267 30031 net.cpp:408] conv9_2_conv9_2_relu_0_split -> conv9_2_conv9_2_relu_0_split_2
I1125 23:00:19.043306 30031 net.cpp:150] Setting up conv9_2_conv9_2_relu_0_split
I1125 23:00:19.043313 30031 net.cpp:157] Top shape: 1 256 1 1 (256)
I1125 23:00:19.043316 30031 net.cpp:157] Top shape: 1 256 1 1 (256)
I1125 23:00:19.043320 30031 net.cpp:157] Top shape: 1 256 1 1 (256)
I1125 23:00:19.043323 30031 net.cpp:165] Memory required for data: 235280832
I1125 23:00:19.043326 30031 layer_factory.hpp:77] Creating layer conv4_3_norm
I1125 23:00:19.043334 30031 net.cpp:100] Creating Layer conv4_3_norm
I1125 23:00:19.043337 30031 net.cpp:434] conv4_3_norm <- conv4_3_relu4_3_0_split_1
I1125 23:00:19.043344 30031 net.cpp:408] conv4_3_norm -> conv4_3_norm
I1125 23:00:19.043459 30031 net.cpp:150] Setting up conv4_3_norm
I1125 23:00:19.043467 30031 net.cpp:157] Top shape: 1 512 38 38 (739328)
I1125 23:00:19.043470 30031 net.cpp:165] Memory required for data: 238238144
I1125 23:00:19.043474 30031 layer_factory.hpp:77] Creating layer conv4_3_norm_conv4_3_norm_0_split
I1125 23:00:19.043480 30031 net.cpp:100] Creating Layer conv4_3_norm_conv4_3_norm_0_split
I1125 23:00:19.043483 30031 net.cpp:434] conv4_3_norm_conv4_3_norm_0_split <- conv4_3_norm
I1125 23:00:19.043490 30031 net.cpp:408] conv4_3_norm_conv4_3_norm_0_split -> conv4_3_norm_conv4_3_norm_0_split_0
I1125 23:00:19.043496 30031 net.cpp:408] conv4_3_norm_conv4_3_norm_0_split -> conv4_3_norm_conv4_3_norm_0_split_1
I1125 23:00:19.043503 30031 net.cpp:408] conv4_3_norm_conv4_3_norm_0_split -> conv4_3_norm_conv4_3_norm_0_split_2
I1125 23:00:19.043535 30031 net.cpp:150] Setting up conv4_3_norm_conv4_3_norm_0_split
I1125 23:00:19.043541 30031 net.cpp:157] Top shape: 1 512 38 38 (739328)
I1125 23:00:19.043545 30031 net.cpp:157] Top shape: 1 512 38 38 (739328)
I1125 23:00:19.043550 30031 net.cpp:157] Top shape: 1 512 38 38 (739328)
I1125 23:00:19.043552 30031 net.cpp:165] Memory required for data: 247110080
I1125 23:00:19.043556 30031 layer_factory.hpp:77] Creating layer conv4_3_norm_mbox_loc
I1125 23:00:19.043565 30031 net.cpp:100] Creating Layer conv4_3_norm_mbox_loc
I1125 23:00:19.043570 30031 net.cpp:434] conv4_3_norm_mbox_loc <- conv4_3_norm_conv4_3_norm_0_split_0
I1125 23:00:19.043576 30031 net.cpp:408] conv4_3_norm_mbox_loc -> conv4_3_norm_mbox_loc
I1125 23:00:19.044085 30031 net.cpp:150] Setting up conv4_3_norm_mbox_loc
I1125 23:00:19.044095 30031 net.cpp:157] Top shape: 1 16 38 38 (23104)
I1125 23:00:19.044097 30031 net.cpp:165] Memory required for data: 247202496
I1125 23:00:19.044104 30031 layer_factory.hpp:77] Creating layer conv4_3_norm_mbox_priorbox
I1125 23:00:19.044112 30031 net.cpp:100] Creating Layer conv4_3_norm_mbox_priorbox
I1125 23:00:19.044116 30031 net.cpp:434] conv4_3_norm_mbox_priorbox <- conv4_3_norm_conv4_3_norm_0_split_1
I1125 23:00:19.044121 30031 net.cpp:434] conv4_3_norm_mbox_priorbox <- data_data_0_split_1
I1125 23:00:19.044128 30031 net.cpp:408] conv4_3_norm_mbox_priorbox -> conv4_3_norm_mbox_priorbox
I1125 23:00:19.044152 30031 net.cpp:150] Setting up conv4_3_norm_mbox_priorbox
I1125 23:00:19.044160 30031 net.cpp:157] Top shape: 1 2 23104 (46208)
I1125 23:00:19.044164 30031 net.cpp:165] Memory required for data: 247387328
I1125 23:00:19.044168 30031 layer_factory.hpp:77] Creating layer fc7_mbox_loc
I1125 23:00:19.044178 30031 net.cpp:100] Creating Layer fc7_mbox_loc
I1125 23:00:19.044181 30031 net.cpp:434] fc7_mbox_loc <- fc7_relu7_0_split_1
I1125 23:00:19.044191 30031 net.cpp:408] fc7_mbox_loc -> fc7_mbox_loc
I1125 23:00:19.045317 30031 net.cpp:150] Setting up fc7_mbox_loc
I1125 23:00:19.045325 30031 net.cpp:157] Top shape: 1 24 19 19 (8664)
I1125 23:00:19.045330 30031 net.cpp:165] Memory required for data: 247421984
I1125 23:00:19.045333 30031 layer_factory.hpp:77] Creating layer fc7_mbox_conf
I1125 23:00:19.045351 30031 net.cpp:100] Creating Layer fc7_mbox_conf
I1125 23:00:19.045356 30031 net.cpp:434] fc7_mbox_conf <- fc7_relu7_0_split_2
I1125 23:00:19.045372 30031 net.cpp:408] fc7_mbox_conf -> fc7_mbox_conf
I1125 23:00:19.071789 30031 net.cpp:150] Setting up fc7_mbox_conf
I1125 23:00:19.071810 30031 net.cpp:157] Top shape: 1 486 19 19 (175446)
I1125 23:00:19.071815 30031 net.cpp:165] Memory required for data: 248123768
I1125 23:00:19.071822 30031 layer_factory.hpp:77] Creating layer fc7_mbox_conf_fc7_mbox_conf_0_split
I1125 23:00:19.071832 30031 net.cpp:100] Creating Layer fc7_mbox_conf_fc7_mbox_conf_0_split
I1125 23:00:19.071836 30031 net.cpp:434] fc7_mbox_conf_fc7_mbox_conf_0_split <- fc7_mbox_conf
I1125 23:00:19.071843 30031 net.cpp:408] fc7_mbox_conf_fc7_mbox_conf_0_split -> fc7_mbox_conf_fc7_mbox_conf_0_split_0
I1125 23:00:19.071851 30031 net.cpp:408] fc7_mbox_conf_fc7_mbox_conf_0_split -> fc7_mbox_conf_fc7_mbox_conf_0_split_1
I1125 23:00:19.071882 30031 net.cpp:150] Setting up fc7_mbox_conf_fc7_mbox_conf_0_split
I1125 23:00:19.071888 30031 net.cpp:157] Top shape: 1 486 19 19 (175446)
I1125 23:00:19.071893 30031 net.cpp:157] Top shape: 1 486 19 19 (175446)
I1125 23:00:19.071897 30031 net.cpp:165] Memory required for data: 249527336
I1125 23:00:19.071898 30031 layer_factory.hpp:77] Creating layer fc7_mbox_priorbox
I1125 23:00:19.071910 30031 net.cpp:100] Creating Layer fc7_mbox_priorbox
I1125 23:00:19.071915 30031 net.cpp:434] fc7_mbox_priorbox <- fc7_relu7_0_split_3
I1125 23:00:19.071920 30031 net.cpp:434] fc7_mbox_priorbox <- data_data_0_split_2
I1125 23:00:19.071928 30031 net.cpp:408] fc7_mbox_priorbox -> fc7_mbox_priorbox
I1125 23:00:19.071947 30031 net.cpp:150] Setting up fc7_mbox_priorbox
I1125 23:00:19.071954 30031 net.cpp:157] Top shape: 1 2 8664 (17328)
I1125 23:00:19.071956 30031 net.cpp:165] Memory required for data: 249596648
I1125 23:00:19.071959 30031 layer_factory.hpp:77] Creating layer conv6_2_mbox_loc
I1125 23:00:19.071972 30031 net.cpp:100] Creating Layer conv6_2_mbox_loc
I1125 23:00:19.071977 30031 net.cpp:434] conv6_2_mbox_loc <- conv6_2_conv6_2_relu_0_split_1
I1125 23:00:19.071983 30031 net.cpp:408] conv6_2_mbox_loc -> conv6_2_mbox_loc
I1125 23:00:19.072651 30031 net.cpp:150] Setting up conv6_2_mbox_loc
I1125 23:00:19.072660 30031 net.cpp:157] Top shape: 1 24 10 10 (2400)
I1125 23:00:19.072664 30031 net.cpp:165] Memory required for data: 249606248
I1125 23:00:19.072669 30031 layer_factory.hpp:77] Creating layer conv6_2_mbox_conf
I1125 23:00:19.072676 30031 net.cpp:100] Creating Layer conv6_2_mbox_conf
I1125 23:00:19.072680 30031 net.cpp:434] conv6_2_mbox_conf <- conv6_2_conv6_2_relu_0_split_2
I1125 23:00:19.072687 30031 net.cpp:408] conv6_2_mbox_conf -> conv6_2_mbox_conf
I1125 23:00:19.086145 30031 net.cpp:150] Setting up conv6_2_mbox_conf
I1125 23:00:19.086160 30031 net.cpp:157] Top shape: 1 486 10 10 (48600)
I1125 23:00:19.086163 30031 net.cpp:165] Memory required for data: 249800648
I1125 23:00:19.086171 30031 layer_factory.hpp:77] Creating layer conv6_2_mbox_conf_conv6_2_mbox_conf_0_split
I1125 23:00:19.086179 30031 net.cpp:100] Creating Layer conv6_2_mbox_conf_conv6_2_mbox_conf_0_split
I1125 23:00:19.086182 30031 net.cpp:434] conv6_2_mbox_conf_conv6_2_mbox_conf_0_split <- conv6_2_mbox_conf
I1125 23:00:19.086189 30031 net.cpp:408] conv6_2_mbox_conf_conv6_2_mbox_conf_0_split -> conv6_2_mbox_conf_conv6_2_mbox_conf_0_split_0
I1125 23:00:19.086197 30031 net.cpp:408] conv6_2_mbox_conf_conv6_2_mbox_conf_0_split -> conv6_2_mbox_conf_conv6_2_mbox_conf_0_split_1
I1125 23:00:19.086228 30031 net.cpp:150] Setting up conv6_2_mbox_conf_conv6_2_mbox_conf_0_split
I1125 23:00:19.086235 30031 net.cpp:157] Top shape: 1 486 10 10 (48600)
I1125 23:00:19.086238 30031 net.cpp:157] Top shape: 1 486 10 10 (48600)
I1125 23:00:19.086242 30031 net.cpp:165] Memory required for data: 250189448
I1125 23:00:19.086246 30031 layer_factory.hpp:77] Creating layer conv6_2_mbox_priorbox
I1125 23:00:19.086253 30031 net.cpp:100] Creating Layer conv6_2_mbox_priorbox
I1125 23:00:19.086257 30031 net.cpp:434] conv6_2_mbox_priorbox <- conv6_2_conv6_2_relu_0_split_3
I1125 23:00:19.086263 30031 net.cpp:434] conv6_2_mbox_priorbox <- data_data_0_split_3
I1125 23:00:19.086294 30031 net.cpp:408] conv6_2_mbox_priorbox -> conv6_2_mbox_priorbox
I1125 23:00:19.086319 30031 net.cpp:150] Setting up conv6_2_mbox_priorbox
I1125 23:00:19.086324 30031 net.cpp:157] Top shape: 1 2 2400 (4800)
I1125 23:00:19.086328 30031 net.cpp:165] Memory required for data: 250208648
I1125 23:00:19.086330 30031 layer_factory.hpp:77] Creating layer conv7_2_mbox_loc
I1125 23:00:19.086339 30031 net.cpp:100] Creating Layer conv7_2_mbox_loc
I1125 23:00:19.086344 30031 net.cpp:434] conv7_2_mbox_loc <- conv7_2_conv7_2_relu_0_split_1
I1125 23:00:19.086352 30031 net.cpp:408] conv7_2_mbox_loc -> conv7_2_mbox_loc
I1125 23:00:19.086782 30031 net.cpp:150] Setting up conv7_2_mbox_loc
I1125 23:00:19.086789 30031 net.cpp:157] Top shape: 1 24 5 5 (600)
I1125 23:00:19.086792 30031 net.cpp:165] Memory required for data: 250211048
I1125 23:00:19.086798 30031 layer_factory.hpp:77] Creating layer conv7_2_mbox_conf
I1125 23:00:19.086807 30031 net.cpp:100] Creating Layer conv7_2_mbox_conf
I1125 23:00:19.086812 30031 net.cpp:434] conv7_2_mbox_conf <- conv7_2_conv7_2_relu_0_split_2
I1125 23:00:19.086818 30031 net.cpp:408] conv7_2_mbox_conf -> conv7_2_mbox_conf
I1125 23:00:19.093711 30031 net.cpp:150] Setting up conv7_2_mbox_conf
I1125 23:00:19.093724 30031 net.cpp:157] Top shape: 1 486 5 5 (12150)
I1125 23:00:19.093727 30031 net.cpp:165] Memory required for data: 250259648
I1125 23:00:19.093734 30031 layer_factory.hpp:77] Creating layer conv7_2_mbox_conf_conv7_2_mbox_conf_0_split
I1125 23:00:19.093742 30031 net.cpp:100] Creating Layer conv7_2_mbox_conf_conv7_2_mbox_conf_0_split
I1125 23:00:19.093747 30031 net.cpp:434] conv7_2_mbox_conf_conv7_2_mbox_conf_0_split <- conv7_2_mbox_conf
I1125 23:00:19.093752 30031 net.cpp:408] conv7_2_mbox_conf_conv7_2_mbox_conf_0_split -> conv7_2_mbox_conf_conv7_2_mbox_conf_0_split_0
I1125 23:00:19.093760 30031 net.cpp:408] conv7_2_mbox_conf_conv7_2_mbox_conf_0_split -> conv7_2_mbox_conf_conv7_2_mbox_conf_0_split_1
I1125 23:00:19.093791 30031 net.cpp:150] Setting up conv7_2_mbox_conf_conv7_2_mbox_conf_0_split
I1125 23:00:19.093797 30031 net.cpp:157] Top shape: 1 486 5 5 (12150)
I1125 23:00:19.093801 30031 net.cpp:157] Top shape: 1 486 5 5 (12150)
I1125 23:00:19.093804 30031 net.cpp:165] Memory required for data: 250356848
I1125 23:00:19.093808 30031 layer_factory.hpp:77] Creating layer conv7_2_mbox_priorbox
I1125 23:00:19.093816 30031 net.cpp:100] Creating Layer conv7_2_mbox_priorbox
I1125 23:00:19.093819 30031 net.cpp:434] conv7_2_mbox_priorbox <- conv7_2_conv7_2_relu_0_split_3
I1125 23:00:19.093824 30031 net.cpp:434] conv7_2_mbox_priorbox <- data_data_0_split_4
I1125 23:00:19.093829 30031 net.cpp:408] conv7_2_mbox_priorbox -> conv7_2_mbox_priorbox
I1125 23:00:19.093853 30031 net.cpp:150] Setting up conv7_2_mbox_priorbox
I1125 23:00:19.093858 30031 net.cpp:157] Top shape: 1 2 600 (1200)
I1125 23:00:19.093861 30031 net.cpp:165] Memory required for data: 250361648
I1125 23:00:19.093865 30031 layer_factory.hpp:77] Creating layer conv8_2_mbox_loc
I1125 23:00:19.093874 30031 net.cpp:100] Creating Layer conv8_2_mbox_loc
I1125 23:00:19.093878 30031 net.cpp:434] conv8_2_mbox_loc <- conv8_2_conv8_2_relu_0_split_1
I1125 23:00:19.093885 30031 net.cpp:408] conv8_2_mbox_loc -> conv8_2_mbox_loc
I1125 23:00:19.094233 30031 net.cpp:150] Setting up conv8_2_mbox_loc
I1125 23:00:19.094239 30031 net.cpp:157] Top shape: 1 16 3 3 (144)
I1125 23:00:19.094243 30031 net.cpp:165] Memory required for data: 250362224
I1125 23:00:19.094246 30031 layer_factory.hpp:77] Creating layer conv8_2_mbox_conf
I1125 23:00:19.094256 30031 net.cpp:100] Creating Layer conv8_2_mbox_conf
I1125 23:00:19.094260 30031 net.cpp:434] conv8_2_mbox_conf <- conv8_2_conv8_2_relu_0_split_2
I1125 23:00:19.094274 30031 net.cpp:408] conv8_2_mbox_conf -> conv8_2_mbox_conf
I1125 23:00:19.099052 30031 net.cpp:150] Setting up conv8_2_mbox_conf
I1125 23:00:19.099064 30031 net.cpp:157] Top shape: 1 324 3 3 (2916)
I1125 23:00:19.099068 30031 net.cpp:165] Memory required for data: 250373888
I1125 23:00:19.099086 30031 layer_factory.hpp:77] Creating layer conv8_2_mbox_priorbox
I1125 23:00:19.099108 30031 net.cpp:100] Creating Layer conv8_2_mbox_priorbox
I1125 23:00:19.099113 30031 net.cpp:434] conv8_2_mbox_priorbox <- conv8_2_conv8_2_relu_0_split_3
I1125 23:00:19.099118 30031 net.cpp:434] conv8_2_mbox_priorbox <- data_data_0_split_5
I1125 23:00:19.099124 30031 net.cpp:408] conv8_2_mbox_priorbox -> conv8_2_mbox_priorbox
I1125 23:00:19.099149 30031 net.cpp:150] Setting up conv8_2_mbox_priorbox
I1125 23:00:19.099156 30031 net.cpp:157] Top shape: 1 2 144 (288)
I1125 23:00:19.099159 30031 net.cpp:165] Memory required for data: 250375040
I1125 23:00:19.099161 30031 layer_factory.hpp:77] Creating layer conv9_2_mbox_loc
I1125 23:00:19.099171 30031 net.cpp:100] Creating Layer conv9_2_mbox_loc
I1125 23:00:19.099176 30031 net.cpp:434] conv9_2_mbox_loc <- conv9_2_conv9_2_relu_0_split_0
I1125 23:00:19.099184 30031 net.cpp:408] conv9_2_mbox_loc -> conv9_2_mbox_loc
I1125 23:00:19.099532 30031 net.cpp:150] Setting up conv9_2_mbox_loc
I1125 23:00:19.099539 30031 net.cpp:157] Top shape: 1 16 1 1 (16)
I1125 23:00:19.099544 30031 net.cpp:165] Memory required for data: 250375104
I1125 23:00:19.099548 30031 layer_factory.hpp:77] Creating layer conv9_2_mbox_conf
I1125 23:00:19.099556 30031 net.cpp:100] Creating Layer conv9_2_mbox_conf
I1125 23:00:19.099560 30031 net.cpp:434] conv9_2_mbox_conf <- conv9_2_conv9_2_relu_0_split_1
I1125 23:00:19.099567 30031 net.cpp:408] conv9_2_mbox_conf -> conv9_2_mbox_conf
I1125 23:00:19.104346 30031 net.cpp:150] Setting up conv9_2_mbox_conf
I1125 23:00:19.104357 30031 net.cpp:157] Top shape: 1 324 1 1 (324)
I1125 23:00:19.104360 30031 net.cpp:165] Memory required for data: 250376400
I1125 23:00:19.104367 30031 layer_factory.hpp:77] Creating layer conv9_2_mbox_priorbox
I1125 23:00:19.104377 30031 net.cpp:100] Creating Layer conv9_2_mbox_priorbox
I1125 23:00:19.104380 30031 net.cpp:434] conv9_2_mbox_priorbox <- conv9_2_conv9_2_relu_0_split_2
I1125 23:00:19.104385 30031 net.cpp:434] conv9_2_mbox_priorbox <- data_data_0_split_6
I1125 23:00:19.104393 30031 net.cpp:408] conv9_2_mbox_priorbox -> conv9_2_mbox_priorbox
I1125 23:00:19.104414 30031 net.cpp:150] Setting up conv9_2_mbox_priorbox
I1125 23:00:19.104420 30031 net.cpp:157] Top shape: 1 2 16 (32)
I1125 23:00:19.104423 30031 net.cpp:165] Memory required for data: 250376528
I1125 23:00:19.104427 30031 layer_factory.hpp:77] Creating layer fc7_mbox_conf_out
I1125 23:00:19.104436 30031 net.cpp:100] Creating Layer fc7_mbox_conf_out
I1125 23:00:19.104440 30031 net.cpp:434] fc7_mbox_conf_out <- fc7_mbox_conf_fc7_mbox_conf_0_split_0
I1125 23:00:19.104447 30031 net.cpp:408] fc7_mbox_conf_out -> fc7_mbox_conf_out
I1125 23:00:19.163342 30031 net.cpp:150] Setting up fc7_mbox_conf_out
I1125 23:00:19.163377 30031 net.cpp:157] Top shape: 1 32 38 38 (46208)
I1125 23:00:19.163380 30031 net.cpp:165] Memory required for data: 250561360
I1125 23:00:19.163388 30031 layer_factory.hpp:77] Creating layer fc7_mbox_conf_out_relu
I1125 23:00:19.163399 30031 net.cpp:100] Creating Layer fc7_mbox_conf_out_relu
I1125 23:00:19.163403 30031 net.cpp:434] fc7_mbox_conf_out_relu <- fc7_mbox_conf_out
I1125 23:00:19.163411 30031 net.cpp:395] fc7_mbox_conf_out_relu -> fc7_mbox_conf_out (in-place)
I1125 23:00:19.163420 30031 net.cpp:150] Setting up fc7_mbox_conf_out_relu
I1125 23:00:19.163426 30031 net.cpp:157] Top shape: 1 32 38 38 (46208)
I1125 23:00:19.163429 30031 net.cpp:165] Memory required for data: 250746192
I1125 23:00:19.163432 30031 layer_factory.hpp:77] Creating layer conv6_2_mbox_conf_out
I1125 23:00:19.163444 30031 net.cpp:100] Creating Layer conv6_2_mbox_conf_out
I1125 23:00:19.163449 30031 net.cpp:434] conv6_2_mbox_conf_out <- conv6_2_mbox_conf_conv6_2_mbox_conf_0_split_0
I1125 23:00:19.163457 30031 net.cpp:408] conv6_2_mbox_conf_out -> conv6_2_mbox_conf_out
I1125 23:00:19.289736 30031 net.cpp:150] Setting up conv6_2_mbox_conf_out
I1125 23:00:19.289779 30031 net.cpp:157] Top shape: 1 32 38 38 (46208)
I1125 23:00:19.289783 30031 net.cpp:165] Memory required for data: 250931024
I1125 23:00:19.289793 30031 layer_factory.hpp:77] Creating layer conv6_2_mbox_conf_out_relu
I1125 23:00:19.289832 30031 net.cpp:100] Creating Layer conv6_2_mbox_conf_out_relu
I1125 23:00:19.289839 30031 net.cpp:434] conv6_2_mbox_conf_out_relu <- conv6_2_mbox_conf_out
I1125 23:00:19.289847 30031 net.cpp:395] conv6_2_mbox_conf_out_relu -> conv6_2_mbox_conf_out (in-place)
I1125 23:00:19.289858 30031 net.cpp:150] Setting up conv6_2_mbox_conf_out_relu
I1125 23:00:19.289863 30031 net.cpp:157] Top shape: 1 32 38 38 (46208)
I1125 23:00:19.289866 30031 net.cpp:165] Memory required for data: 251115856
I1125 23:00:19.289870 30031 layer_factory.hpp:77] Creating layer conv7_2_mbox_conf_out
I1125 23:00:19.289880 30031 net.cpp:100] Creating Layer conv7_2_mbox_conf_out
I1125 23:00:19.289883 30031 net.cpp:434] conv7_2_mbox_conf_out <- conv7_2_mbox_conf_conv7_2_mbox_conf_0_split_0
I1125 23:00:19.289892 30031 net.cpp:408] conv7_2_mbox_conf_out -> conv7_2_mbox_conf_out
I1125 23:00:19.463276 30031 net.cpp:150] Setting up conv7_2_mbox_conf_out
I1125 23:00:19.463320 30031 net.cpp:157] Top shape: 1 32 38 38 (46208)
I1125 23:00:19.463323 30031 net.cpp:165] Memory required for data: 251300688
I1125 23:00:19.463333 30031 layer_factory.hpp:77] Creating layer conv7_2_mbox_conf_out_relu
I1125 23:00:19.463346 30031 net.cpp:100] Creating Layer conv7_2_mbox_conf_out_relu
I1125 23:00:19.463351 30031 net.cpp:434] conv7_2_mbox_conf_out_relu <- conv7_2_mbox_conf_out
I1125 23:00:19.463361 30031 net.cpp:395] conv7_2_mbox_conf_out_relu -> conv7_2_mbox_conf_out (in-place)
I1125 23:00:19.463372 30031 net.cpp:150] Setting up conv7_2_mbox_conf_out_relu
I1125 23:00:19.463377 30031 net.cpp:157] Top shape: 1 32 38 38 (46208)
I1125 23:00:19.463380 30031 net.cpp:165] Memory required for data: 251485520
I1125 23:00:19.463383 30031 layer_factory.hpp:77] Creating layer conv4_3_context
I1125 23:00:19.463390 30031 net.cpp:100] Creating Layer conv4_3_context
I1125 23:00:19.463395 30031 net.cpp:434] conv4_3_context <- fc7_mbox_conf_out
I1125 23:00:19.463400 30031 net.cpp:434] conv4_3_context <- conv6_2_mbox_conf_out
I1125 23:00:19.463404 30031 net.cpp:434] conv4_3_context <- conv7_2_mbox_conf_out
I1125 23:00:19.463409 30031 net.cpp:434] conv4_3_context <- conv4_3_norm_conv4_3_norm_0_split_2
I1125 23:00:19.463416 30031 net.cpp:408] conv4_3_context -> conv4_3_context
I1125 23:00:19.463443 30031 net.cpp:150] Setting up conv4_3_context
I1125 23:00:19.463449 30031 net.cpp:157] Top shape: 1 608 38 38 (877952)
I1125 23:00:19.463451 30031 net.cpp:165] Memory required for data: 254997328
I1125 23:00:19.463455 30031 layer_factory.hpp:77] Creating layer conv4_3_norm_mbox_conf
I1125 23:00:19.463479 30031 net.cpp:100] Creating Layer conv4_3_norm_mbox_conf
I1125 23:00:19.463482 30031 net.cpp:434] conv4_3_norm_mbox_conf <- conv4_3_context
I1125 23:00:19.463488 30031 net.cpp:408] conv4_3_norm_mbox_conf -> conv4_3_norm_mbox_conf
I1125 23:00:19.474519 30031 net.cpp:150] Setting up conv4_3_norm_mbox_conf
I1125 23:00:19.474532 30031 net.cpp:157] Top shape: 1 324 38 38 (467856)
I1125 23:00:19.474537 30031 net.cpp:165] Memory required for data: 256868752
I1125 23:00:19.474544 30031 layer_factory.hpp:77] Creating layer conv4_3_norm_mbox_loc_perm
I1125 23:00:19.474553 30031 net.cpp:100] Creating Layer conv4_3_norm_mbox_loc_perm
I1125 23:00:19.474557 30031 net.cpp:434] conv4_3_norm_mbox_loc_perm <- conv4_3_norm_mbox_loc
I1125 23:00:19.474566 30031 net.cpp:408] conv4_3_norm_mbox_loc_perm -> conv4_3_norm_mbox_loc_perm
I1125 23:00:19.474649 30031 net.cpp:150] Setting up conv4_3_norm_mbox_loc_perm
I1125 23:00:19.474656 30031 net.cpp:157] Top shape: 1 38 38 16 (23104)
I1125 23:00:19.474659 30031 net.cpp:165] Memory required for data: 256961168
I1125 23:00:19.474663 30031 layer_factory.hpp:77] Creating layer conv4_3_norm_mbox_loc_flat
I1125 23:00:19.474670 30031 net.cpp:100] Creating Layer conv4_3_norm_mbox_loc_flat
I1125 23:00:19.474675 30031 net.cpp:434] conv4_3_norm_mbox_loc_flat <- conv4_3_norm_mbox_loc_perm
I1125 23:00:19.474683 30031 net.cpp:408] conv4_3_norm_mbox_loc_flat -> conv4_3_norm_mbox_loc_flat
I1125 23:00:19.474705 30031 net.cpp:150] Setting up conv4_3_norm_mbox_loc_flat
I1125 23:00:19.474735 30031 net.cpp:157] Top shape: 1 23104 (23104)
I1125 23:00:19.474738 30031 net.cpp:165] Memory required for data: 257053584
I1125 23:00:19.474741 30031 layer_factory.hpp:77] Creating layer conv4_3_norm_mbox_conf_perm
I1125 23:00:19.474747 30031 net.cpp:100] Creating Layer conv4_3_norm_mbox_conf_perm
I1125 23:00:19.474751 30031 net.cpp:434] conv4_3_norm_mbox_conf_perm <- conv4_3_norm_mbox_conf
I1125 23:00:19.474758 30031 net.cpp:408] conv4_3_norm_mbox_conf_perm -> conv4_3_norm_mbox_conf_perm
I1125 23:00:19.474833 30031 net.cpp:150] Setting up conv4_3_norm_mbox_conf_perm
I1125 23:00:19.474839 30031 net.cpp:157] Top shape: 1 38 38 324 (467856)
I1125 23:00:19.474843 30031 net.cpp:165] Memory required for data: 258925008
I1125 23:00:19.474846 30031 layer_factory.hpp:77] Creating layer conv4_3_norm_mbox_conf_flat
I1125 23:00:19.474853 30031 net.cpp:100] Creating Layer conv4_3_norm_mbox_conf_flat
I1125 23:00:19.474858 30031 net.cpp:434] conv4_3_norm_mbox_conf_flat <- conv4_3_norm_mbox_conf_perm
I1125 23:00:19.474866 30031 net.cpp:408] conv4_3_norm_mbox_conf_flat -> conv4_3_norm_mbox_conf_flat
I1125 23:00:19.474887 30031 net.cpp:150] Setting up conv4_3_norm_mbox_conf_flat
I1125 23:00:19.474894 30031 net.cpp:157] Top shape: 1 467856 (467856)
I1125 23:00:19.474896 30031 net.cpp:165] Memory required for data: 260796432
I1125 23:00:19.474900 30031 layer_factory.hpp:77] Creating layer fc7_mbox_loc_perm
I1125 23:00:19.474906 30031 net.cpp:100] Creating Layer fc7_mbox_loc_perm
I1125 23:00:19.474910 30031 net.cpp:434] fc7_mbox_loc_perm <- fc7_mbox_loc
I1125 23:00:19.474917 30031 net.cpp:408] fc7_mbox_loc_perm -> fc7_mbox_loc_perm
I1125 23:00:19.474987 30031 net.cpp:150] Setting up fc7_mbox_loc_perm
I1125 23:00:19.474994 30031 net.cpp:157] Top shape: 1 19 19 24 (8664)
I1125 23:00:19.474997 30031 net.cpp:165] Memory required for data: 260831088
I1125 23:00:19.475002 30031 layer_factory.hpp:77] Creating layer fc7_mbox_loc_flat
I1125 23:00:19.475006 30031 net.cpp:100] Creating Layer fc7_mbox_loc_flat
I1125 23:00:19.475010 30031 net.cpp:434] fc7_mbox_loc_flat <- fc7_mbox_loc_perm
I1125 23:00:19.475018 30031 net.cpp:408] fc7_mbox_loc_flat -> fc7_mbox_loc_flat
I1125 23:00:19.475036 30031 net.cpp:150] Setting up fc7_mbox_loc_flat
I1125 23:00:19.475042 30031 net.cpp:157] Top shape: 1 8664 (8664)
I1125 23:00:19.475046 30031 net.cpp:165] Memory required for data: 260865744
I1125 23:00:19.475049 30031 layer_factory.hpp:77] Creating layer fc7_mbox_conf_perm
I1125 23:00:19.475054 30031 net.cpp:100] Creating Layer fc7_mbox_conf_perm
I1125 23:00:19.475057 30031 net.cpp:434] fc7_mbox_conf_perm <- fc7_mbox_conf_fc7_mbox_conf_0_split_1
I1125 23:00:19.475064 30031 net.cpp:408] fc7_mbox_conf_perm -> fc7_mbox_conf_perm
I1125 23:00:19.475133 30031 net.cpp:150] Setting up fc7_mbox_conf_perm
I1125 23:00:19.475141 30031 net.cpp:157] Top shape: 1 19 19 486 (175446)
I1125 23:00:19.475144 30031 net.cpp:165] Memory required for data: 261567528
I1125 23:00:19.475148 30031 layer_factory.hpp:77] Creating layer fc7_mbox_conf_flat
I1125 23:00:19.475153 30031 net.cpp:100] Creating Layer fc7_mbox_conf_flat
I1125 23:00:19.475157 30031 net.cpp:434] fc7_mbox_conf_flat <- fc7_mbox_conf_perm
I1125 23:00:19.475163 30031 net.cpp:408] fc7_mbox_conf_flat -> fc7_mbox_conf_flat
I1125 23:00:19.475183 30031 net.cpp:150] Setting up fc7_mbox_conf_flat
I1125 23:00:19.475188 30031 net.cpp:157] Top shape: 1 175446 (175446)
I1125 23:00:19.475191 30031 net.cpp:165] Memory required for data: 262269312
I1125 23:00:19.475194 30031 layer_factory.hpp:77] Creating layer conv6_2_mbox_loc_perm
I1125 23:00:19.475201 30031 net.cpp:100] Creating Layer conv6_2_mbox_loc_perm
I1125 23:00:19.475205 30031 net.cpp:434] conv6_2_mbox_loc_perm <- conv6_2_mbox_loc
I1125 23:00:19.475212 30031 net.cpp:408] conv6_2_mbox_loc_perm -> conv6_2_mbox_loc_perm
I1125 23:00:19.475280 30031 net.cpp:150] Setting up conv6_2_mbox_loc_perm
I1125 23:00:19.475286 30031 net.cpp:157] Top shape: 1 10 10 24 (2400)
I1125 23:00:19.475289 30031 net.cpp:165] Memory required for data: 262278912
I1125 23:00:19.475299 30031 layer_factory.hpp:77] Creating layer conv6_2_mbox_loc_flat
I1125 23:00:19.475306 30031 net.cpp:100] Creating Layer conv6_2_mbox_loc_flat
I1125 23:00:19.475311 30031 net.cpp:434] conv6_2_mbox_loc_flat <- conv6_2_mbox_loc_perm
I1125 23:00:19.475317 30031 net.cpp:408] conv6_2_mbox_loc_flat -> conv6_2_mbox_loc_flat
I1125 23:00:19.475335 30031 net.cpp:150] Setting up conv6_2_mbox_loc_flat
I1125 23:00:19.475342 30031 net.cpp:157] Top shape: 1 2400 (2400)
I1125 23:00:19.475347 30031 net.cpp:165] Memory required for data: 262288512
I1125 23:00:19.475348 30031 layer_factory.hpp:77] Creating layer conv6_2_mbox_conf_perm
I1125 23:00:19.475353 30031 net.cpp:100] Creating Layer conv6_2_mbox_conf_perm
I1125 23:00:19.475358 30031 net.cpp:434] conv6_2_mbox_conf_perm <- conv6_2_mbox_conf_conv6_2_mbox_conf_0_split_1
I1125 23:00:19.475366 30031 net.cpp:408] conv6_2_mbox_conf_perm -> conv6_2_mbox_conf_perm
I1125 23:00:19.475437 30031 net.cpp:150] Setting up conv6_2_mbox_conf_perm
I1125 23:00:19.475445 30031 net.cpp:157] Top shape: 1 10 10 486 (48600)
I1125 23:00:19.475447 30031 net.cpp:165] Memory required for data: 262482912
I1125 23:00:19.475451 30031 layer_factory.hpp:77] Creating layer conv6_2_mbox_conf_flat
I1125 23:00:19.475458 30031 net.cpp:100] Creating Layer conv6_2_mbox_conf_flat
I1125 23:00:19.475462 30031 net.cpp:434] conv6_2_mbox_conf_flat <- conv6_2_mbox_conf_perm
I1125 23:00:19.475468 30031 net.cpp:408] conv6_2_mbox_conf_flat -> conv6_2_mbox_conf_flat
I1125 23:00:19.475487 30031 net.cpp:150] Setting up conv6_2_mbox_conf_flat
I1125 23:00:19.475492 30031 net.cpp:157] Top shape: 1 48600 (48600)
I1125 23:00:19.475495 30031 net.cpp:165] Memory required for data: 262677312
I1125 23:00:19.475498 30031 layer_factory.hpp:77] Creating layer conv7_2_mbox_loc_perm
I1125 23:00:19.475505 30031 net.cpp:100] Creating Layer conv7_2_mbox_loc_perm
I1125 23:00:19.475509 30031 net.cpp:434] conv7_2_mbox_loc_perm <- conv7_2_mbox_loc
I1125 23:00:19.475515 30031 net.cpp:408] conv7_2_mbox_loc_perm -> conv7_2_mbox_loc_perm
I1125 23:00:19.475584 30031 net.cpp:150] Setting up conv7_2_mbox_loc_perm
I1125 23:00:19.475590 30031 net.cpp:157] Top shape: 1 5 5 24 (600)
I1125 23:00:19.475594 30031 net.cpp:165] Memory required for data: 262679712
I1125 23:00:19.475596 30031 layer_factory.hpp:77] Creating layer conv7_2_mbox_loc_flat
I1125 23:00:19.475601 30031 net.cpp:100] Creating Layer conv7_2_mbox_loc_flat
I1125 23:00:19.475605 30031 net.cpp:434] conv7_2_mbox_loc_flat <- conv7_2_mbox_loc_perm
I1125 23:00:19.475610 30031 net.cpp:408] conv7_2_mbox_loc_flat -> conv7_2_mbox_loc_flat
I1125 23:00:19.475630 30031 net.cpp:150] Setting up conv7_2_mbox_loc_flat
I1125 23:00:19.475636 30031 net.cpp:157] Top shape: 1 600 (600)
I1125 23:00:19.475641 30031 net.cpp:165] Memory required for data: 262682112
I1125 23:00:19.475643 30031 layer_factory.hpp:77] Creating layer conv7_2_mbox_conf_perm
I1125 23:00:19.475648 30031 net.cpp:100] Creating Layer conv7_2_mbox_conf_perm
I1125 23:00:19.475651 30031 net.cpp:434] conv7_2_mbox_conf_perm <- conv7_2_mbox_conf_conv7_2_mbox_conf_0_split_1
I1125 23:00:19.475657 30031 net.cpp:408] conv7_2_mbox_conf_perm -> conv7_2_mbox_conf_perm
I1125 23:00:19.475726 30031 net.cpp:150] Setting up conv7_2_mbox_conf_perm
I1125 23:00:19.475733 30031 net.cpp:157] Top shape: 1 5 5 486 (12150)
I1125 23:00:19.475735 30031 net.cpp:165] Memory required for data: 262730712
I1125 23:00:19.475739 30031 layer_factory.hpp:77] Creating layer conv7_2_mbox_conf_flat
I1125 23:00:19.475746 30031 net.cpp:100] Creating Layer conv7_2_mbox_conf_flat
I1125 23:00:19.475749 30031 net.cpp:434] conv7_2_mbox_conf_flat <- conv7_2_mbox_conf_perm
I1125 23:00:19.475756 30031 net.cpp:408] conv7_2_mbox_conf_flat -> conv7_2_mbox_conf_flat
I1125 23:00:19.475775 30031 net.cpp:150] Setting up conv7_2_mbox_conf_flat
I1125 23:00:19.475780 30031 net.cpp:157] Top shape: 1 12150 (12150)
I1125 23:00:19.475782 30031 net.cpp:165] Memory required for data: 262779312
I1125 23:00:19.475785 30031 layer_factory.hpp:77] Creating layer conv8_2_mbox_loc_perm
I1125 23:00:19.475800 30031 net.cpp:100] Creating Layer conv8_2_mbox_loc_perm
I1125 23:00:19.475803 30031 net.cpp:434] conv8_2_mbox_loc_perm <- conv8_2_mbox_loc
I1125 23:00:19.475811 30031 net.cpp:408] conv8_2_mbox_loc_perm -> conv8_2_mbox_loc_perm
I1125 23:00:19.475884 30031 net.cpp:150] Setting up conv8_2_mbox_loc_perm
I1125 23:00:19.475891 30031 net.cpp:157] Top shape: 1 3 3 16 (144)
I1125 23:00:19.475894 30031 net.cpp:165] Memory required for data: 262779888
I1125 23:00:19.475896 30031 layer_factory.hpp:77] Creating layer conv8_2_mbox_loc_flat
I1125 23:00:19.475903 30031 net.cpp:100] Creating Layer conv8_2_mbox_loc_flat
I1125 23:00:19.475908 30031 net.cpp:434] conv8_2_mbox_loc_flat <- conv8_2_mbox_loc_perm
I1125 23:00:19.475913 30031 net.cpp:408] conv8_2_mbox_loc_flat -> conv8_2_mbox_loc_flat
I1125 23:00:19.475931 30031 net.cpp:150] Setting up conv8_2_mbox_loc_flat
I1125 23:00:19.475937 30031 net.cpp:157] Top shape: 1 144 (144)
I1125 23:00:19.475941 30031 net.cpp:165] Memory required for data: 262780464
I1125 23:00:19.475944 30031 layer_factory.hpp:77] Creating layer conv8_2_mbox_conf_perm
I1125 23:00:19.475950 30031 net.cpp:100] Creating Layer conv8_2_mbox_conf_perm
I1125 23:00:19.475953 30031 net.cpp:434] conv8_2_mbox_conf_perm <- conv8_2_mbox_conf
I1125 23:00:19.475960 30031 net.cpp:408] conv8_2_mbox_conf_perm -> conv8_2_mbox_conf_perm
I1125 23:00:19.476034 30031 net.cpp:150] Setting up conv8_2_mbox_conf_perm
I1125 23:00:19.476040 30031 net.cpp:157] Top shape: 1 3 3 324 (2916)
I1125 23:00:19.476044 30031 net.cpp:165] Memory required for data: 262792128
I1125 23:00:19.476048 30031 layer_factory.hpp:77] Creating layer conv8_2_mbox_conf_flat
I1125 23:00:19.476055 30031 net.cpp:100] Creating Layer conv8_2_mbox_conf_flat
I1125 23:00:19.476059 30031 net.cpp:434] conv8_2_mbox_conf_flat <- conv8_2_mbox_conf_perm
I1125 23:00:19.476064 30031 net.cpp:408] conv8_2_mbox_conf_flat -> conv8_2_mbox_conf_flat
I1125 23:00:19.476083 30031 net.cpp:150] Setting up conv8_2_mbox_conf_flat
I1125 23:00:19.476089 30031 net.cpp:157] Top shape: 1 2916 (2916)
I1125 23:00:19.476092 30031 net.cpp:165] Memory required for data: 262803792
I1125 23:00:19.476094 30031 layer_factory.hpp:77] Creating layer conv9_2_mbox_loc_perm
I1125 23:00:19.476101 30031 net.cpp:100] Creating Layer conv9_2_mbox_loc_perm
I1125 23:00:19.476105 30031 net.cpp:434] conv9_2_mbox_loc_perm <- conv9_2_mbox_loc
I1125 23:00:19.476110 30031 net.cpp:408] conv9_2_mbox_loc_perm -> conv9_2_mbox_loc_perm
I1125 23:00:19.476181 30031 net.cpp:150] Setting up conv9_2_mbox_loc_perm
I1125 23:00:19.476187 30031 net.cpp:157] Top shape: 1 1 1 16 (16)
I1125 23:00:19.476191 30031 net.cpp:165] Memory required for data: 262803856
I1125 23:00:19.476192 30031 layer_factory.hpp:77] Creating layer conv9_2_mbox_loc_flat
I1125 23:00:19.476199 30031 net.cpp:100] Creating Layer conv9_2_mbox_loc_flat
I1125 23:00:19.476203 30031 net.cpp:434] conv9_2_mbox_loc_flat <- conv9_2_mbox_loc_perm
I1125 23:00:19.476208 30031 net.cpp:408] conv9_2_mbox_loc_flat -> conv9_2_mbox_loc_flat
I1125 23:00:19.476227 30031 net.cpp:150] Setting up conv9_2_mbox_loc_flat
I1125 23:00:19.476233 30031 net.cpp:157] Top shape: 1 16 (16)
I1125 23:00:19.476236 30031 net.cpp:165] Memory required for data: 262803920
I1125 23:00:19.476239 30031 layer_factory.hpp:77] Creating layer conv9_2_mbox_conf_perm
I1125 23:00:19.476245 30031 net.cpp:100] Creating Layer conv9_2_mbox_conf_perm
I1125 23:00:19.476249 30031 net.cpp:434] conv9_2_mbox_conf_perm <- conv9_2_mbox_conf
I1125 23:00:19.476254 30031 net.cpp:408] conv9_2_mbox_conf_perm -> conv9_2_mbox_conf_perm
I1125 23:00:19.476323 30031 net.cpp:150] Setting up conv9_2_mbox_conf_perm
I1125 23:00:19.476330 30031 net.cpp:157] Top shape: 1 1 1 324 (324)
I1125 23:00:19.476332 30031 net.cpp:165] Memory required for data: 262805216
I1125 23:00:19.476336 30031 layer_factory.hpp:77] Creating layer conv9_2_mbox_conf_flat
I1125 23:00:19.476342 30031 net.cpp:100] Creating Layer conv9_2_mbox_conf_flat
I1125 23:00:19.476346 30031 net.cpp:434] conv9_2_mbox_conf_flat <- conv9_2_mbox_conf_perm
I1125 23:00:19.476351 30031 net.cpp:408] conv9_2_mbox_conf_flat -> conv9_2_mbox_conf_flat
I1125 23:00:19.476379 30031 net.cpp:150] Setting up conv9_2_mbox_conf_flat
I1125 23:00:19.476385 30031 net.cpp:157] Top shape: 1 324 (324)
I1125 23:00:19.476388 30031 net.cpp:165] Memory required for data: 262806512
I1125 23:00:19.476390 30031 layer_factory.hpp:77] Creating layer mbox_loc
I1125 23:00:19.476398 30031 net.cpp:100] Creating Layer mbox_loc
I1125 23:00:19.476402 30031 net.cpp:434] mbox_loc <- conv4_3_norm_mbox_loc_flat
I1125 23:00:19.476408 30031 net.cpp:434] mbox_loc <- fc7_mbox_loc_flat
I1125 23:00:19.476411 30031 net.cpp:434] mbox_loc <- conv6_2_mbox_loc_flat
I1125 23:00:19.476416 30031 net.cpp:434] mbox_loc <- conv7_2_mbox_loc_flat
I1125 23:00:19.476420 30031 net.cpp:434] mbox_loc <- conv8_2_mbox_loc_flat
I1125 23:00:19.476424 30031 net.cpp:434] mbox_loc <- conv9_2_mbox_loc_flat
I1125 23:00:19.476429 30031 net.cpp:408] mbox_loc -> mbox_loc
I1125 23:00:19.476451 30031 net.cpp:150] Setting up mbox_loc
I1125 23:00:19.476456 30031 net.cpp:157] Top shape: 1 34928 (34928)
I1125 23:00:19.476459 30031 net.cpp:165] Memory required for data: 262946224
I1125 23:00:19.476462 30031 layer_factory.hpp:77] Creating layer mbox_conf
I1125 23:00:19.476469 30031 net.cpp:100] Creating Layer mbox_conf
I1125 23:00:19.476471 30031 net.cpp:434] mbox_conf <- conv4_3_norm_mbox_conf_flat
I1125 23:00:19.476476 30031 net.cpp:434] mbox_conf <- fc7_mbox_conf_flat
I1125 23:00:19.476481 30031 net.cpp:434] mbox_conf <- conv6_2_mbox_conf_flat
I1125 23:00:19.476486 30031 net.cpp:434] mbox_conf <- conv7_2_mbox_conf_flat
I1125 23:00:19.476490 30031 net.cpp:434] mbox_conf <- conv8_2_mbox_conf_flat
I1125 23:00:19.476495 30031 net.cpp:434] mbox_conf <- conv9_2_mbox_conf_flat
I1125 23:00:19.476500 30031 net.cpp:408] mbox_conf -> mbox_conf
I1125 23:00:19.476518 30031 net.cpp:150] Setting up mbox_conf
I1125 23:00:19.476524 30031 net.cpp:157] Top shape: 1 707292 (707292)
I1125 23:00:19.476527 30031 net.cpp:165] Memory required for data: 265775392
I1125 23:00:19.476531 30031 layer_factory.hpp:77] Creating layer mbox_priorbox
I1125 23:00:19.476536 30031 net.cpp:100] Creating Layer mbox_priorbox
I1125 23:00:19.476541 30031 net.cpp:434] mbox_priorbox <- conv4_3_norm_mbox_priorbox
I1125 23:00:19.476546 30031 net.cpp:434] mbox_priorbox <- fc7_mbox_priorbox
I1125 23:00:19.476549 30031 net.cpp:434] mbox_priorbox <- conv6_2_mbox_priorbox
I1125 23:00:19.476553 30031 net.cpp:434] mbox_priorbox <- conv7_2_mbox_priorbox
I1125 23:00:19.476557 30031 net.cpp:434] mbox_priorbox <- conv8_2_mbox_priorbox
I1125 23:00:19.476562 30031 net.cpp:434] mbox_priorbox <- conv9_2_mbox_priorbox
I1125 23:00:19.476567 30031 net.cpp:408] mbox_priorbox -> mbox_priorbox
I1125 23:00:19.476586 30031 net.cpp:150] Setting up mbox_priorbox
I1125 23:00:19.476593 30031 net.cpp:157] Top shape: 1 2 34928 (69856)
I1125 23:00:19.476595 30031 net.cpp:165] Memory required for data: 266054816
I1125 23:00:19.476598 30031 layer_factory.hpp:77] Creating layer mbox_loss
I1125 23:00:19.476608 30031 net.cpp:100] Creating Layer mbox_loss
I1125 23:00:19.476611 30031 net.cpp:434] mbox_loss <- mbox_loc
I1125 23:00:19.476615 30031 net.cpp:434] mbox_loss <- mbox_conf
I1125 23:00:19.476619 30031 net.cpp:434] mbox_loss <- mbox_priorbox
…
}
layer {
  name: "data"
  type: "AnnotatedData"
  top: "data"
  top: "label"
  include {
    phase: TEST
  }
  transform_param {
    mean_value: 104
    mean_value: 117
    mean_value: 123
    force_color: true
    resize_param {
      prob: 1
      resize_mode: WARP
      height: 300
      width: 300
      interp_mode: LINEAR
    }
  }
  data_param {
    source: "examples/coco/coco_minival_lmdb"
    batch_size: 8
    backend: LMDB
  }
  annotated_data_param {
    batch_sampler {
    }
    label_map_file: "data/coco/labelmap_coco.prototxt"
  }
}
layer {
  name: "conv1_1"
  type: "Convolution"
  bottom: "data"
  top: "conv1_1"
  param {
    lr_mult: 1
    decay_mult: 1
  }
  param {
    lr_mult: 2
    decay_mult: 0
  }
  convolution_param {
    num_output: 64
    pad: 1
    kernel_size: 3
    weight_filler {
      type: "xavier"
    }
    bias_filler {
      type: "constant"
      value: 0
    }
  }
}
layer {
  name: "relu1_1"
  type: "ReLU"
  bottom: "conv1_1"
  top: "conv1_1"
}
layer {
  name: "conv1_2"
  type: "Convolution"
  bottom: "conv1_1"
  top: "conv1_2"
  param {
    lr_mult: 1
    decay_mult: 1
  }
  param {
    lr_mult: 2
    decay_mult: 0
  }
  convolution_param {
    num_output: 64
    pad: 1
    kernel_size: 3
    weight_filler {
      type: "xavier"
    }
    bias_filler {
      type: "constant"
      value: 0
    }
  }
}
layer {
  name: "relu1_2"
  type: "ReLU"
  bottom: "conv1_2"
  top: "conv1_2"
}
layer {
  name: "pool1"
  type: "Pooling"
  bottom: "conv1_2"
  top: "pool1"
  pooling_param {
    pool: MAX
    kernel_size: 2
    stride: 2
  }
}
layer {
  name: "conv2_1"
  type: "Convolution"
  bottom: "pool1"
  top: "conv2_1"
  param {
    lr_mult: 1
    decay_mult: 1
  }
  param {
    lr_mult: 2
    decay_mult: 0
  }
  convolution_param {
    num_output: 128
    pad: 1
    kernel_size: 3
    weight_filler {
      type: "xavier"
    }
    bias_filler {
      type: "constant"
      value: 0
    }
  }
}
layer {
  name: "relu2_1"
  type: "ReLU"
  bottom: "conv2_1"
  top: "conv2_1"
}
layer {
  name: "conv2_2"
  type: "Convolution"
  bottom: "conv2_1"
  top: "conv2_2"
  param {
    lr_mult: 1
    decay_mult: 1
  }
  param {
    lr_mult: 2
    decay_mult: 0
  }
  convolution_param {
    num_output: 128
    pad: 1
    kernel_size: 3
    weight_filler {
      type: "xavier"
    }
    bias_filler {
      type: "constant"
      value: 0
    }
  }
}
layer {
  name: "relu2_2"
  type: "ReLU"
  bottom: "conv2_2"
  top: "conv2_2"
}
layer {
  name: "pool2"
  type: "Pooling"
  bottom: "conv2_2"
  top: "pool2"
  pooling_param {
    pool: MAX
    kernel_size: 2
    stride: 2
  }
}
layer {
  name: "conv3_1"
  type: "Convolution"
  bottom: "pool2"
  top: "conv3_1"
  param {
    lr_mult: 1
    decay_mult: 1
  }
  param {
    lr_mult: 2
    decay_mult: 0
  }
  convolution_param {
    num_output: 256
    pad: 1
    kernel_size: 3
    weight_filler {
      type: "xavier"
    }
    bias_filler {
      type: "constant"
      value: 0
    }
  }
}
layer {
  name: "relu3_1"
  type: "ReLU"
  bottom: "conv3_1"
  top: "conv3_1"
}
layer {
  name: "conv3_2"
  type: "Convolution"
  bottom: "conv3_1"
  top: "conv3_2"
  param {
    lr_mult: 1
    decay_mult: 1
  }
  param {
    lr_mult: 2
    decay_mult: 0
  }
  convolution_param {
    num_output: 256
    pad: 1
    kernel_size: 3
    weight_filler {
      type: "xavier"
    }
    bias_filler {
      type: "constant"
      value: 0
    }
  }
}
layer {
  name: "relu3_2"
  type: "ReLU"
  bottom: "conv3_2"
  top: "conv3_2"
}
layer {
  name: "conv3_3"
  type: "Convolution"
  bottom: "conv3_2"
  top: "conv3_3"
  param {
    lr_mult: 1
    decay_mult: 1
  }
  param {
    lr_mult: 2
    decay_mult: 0
  }
  convolution_param {
    num_output: 256
    pad: 1
    kernel_size: 3
    weight_filler {
      type: "xavier"
    }
    bias_filler {
      type: "constant"
      value: 0
    }
  }
}
layer {
  name: "relu3_3"
  type: "ReLU"
  bottom: "conv3_3"
  top: "conv3_3"
}
layer {
  name: "pool3"
  type: "Pooling"
  bottom: "conv3_3"
  top: "pool3"
  pooling_param {
    pool: MAX
    kernel_size: 2
    stride: 2
  }
}
layer {
  name: "conv4_1"
  type: "Convolution"
  bottom: "pool3"
  top: "conv4_1"
  param {
    lr_mult: 1
    decay_mult: 1
  }
  param {
    lr_mult: 2
    decay_mult: 0
  }
  convolution_param {
    num_output: 512
    pad: 1
    kernel_size: 3
    weight_filler {
      type: "xavier"
    }
    bias_filler {
      type: "constant"
      value: 0
    }
  }
}
layer {
  name: "relu4_1"
  type: "ReLU"
  bottom: "conv4_1"
  top: "conv4_1"
}
layer {
  name: "conv4_2"
  type: "Convolution"
  bottom: "conv4_1"
  top: "conv4_2"
  param {
    lr_mult: 1
    decay_mult: 1
  }
  param {
    lr_mult: 2
    decay_mult: 0
  }
  convolution_param {
    num_output: 512
    pad: 1
    kernel_size: 3
    weight_filler {
      type: "xavier"
    }
    bias_filler {
      type: "constant"
      value: 0
    }
  }
}
layer {
  name: "relu4_2"
  type: "ReLU"
  bottom: "conv4_2"
  top: "conv4_2"
}
layer {
  name: "conv4_3"
  type: "Convolution"
  bottom: "conv4_2"
  top: "conv4_3"
  param {
    lr_mult: 1
    decay_mult: 1
  }
  param {
    lr_mult: 2
    decay_mult: 0
  }
  convolution_param {
    num_output: 512
    pad: 1
    kernel_size: 3
    weight_filler {
      type: "xavier"
    }
    bias_filler {
      type: "constant"
      value: 0
    }
  }
}
layer {
  name: "relu4_3"
  type: "ReLU"
  bottom: "conv4_3"
  top: "conv4_3"
}
layer {
  name: "pool4"
  type: "Pooling"
  bottom: "conv4_3"
  top: "pool4"
  pooling_param {
    pool: MAX
    kernel_size: 2
    stride: 2
  }
}
layer {
  name: "conv5_1"
  type: "Convolution"
  bottom: "pool4"
  top: "conv5_1"
  param {
    lr_mult: 1
    decay_mult: 1
  }
  param {
    lr_mult: 2
    decay_mult: 0
  }
  convolution_param {
    num_output: 512
    pad: 1
    kernel_size: 3
    weight_filler {
      type: "xavier"
    }
    bias_filler {
      type: "constant"
      value: 0
    }
    dilation: 1
  }
}
layer {
  name: "relu5_1"
  type: "ReLU"
  bottom: "conv5_1"
  top: "conv5_1"
}
layer {
  name: "conv5_2"
  type: "Convolution"
  bottom: "conv5_1"
  top: "conv5_2"
  param {
    lr_mult: 1
    decay_mult: 1
  }
  param {
    lr_mult: 2
    decay_mult: 0
  }
  convolution_param {
    num_output: 512
    pad: 1
    kernel_size: 3
    weight_filler {
      type: "xavier"
    }
    bias_filler {
      type: "constant"
      value: 0
    }
    dilation: 1
  }
}
layer {
  name: "relu5_2"
  type: "ReLU"
  bottom: "conv5_2"
  top: "conv5_2"
}
layer {
  name: "conv5_3"
  type: "Convolution"
  bottom: "conv5_2"
  top: "conv5_3"
  param {
    lr_mult: 1
    decay_mult: 1
  }
  param {
    lr_mult: 2
    decay_mult: 0
  }
  convolution_param {
    num_output: 512
    pad: 1
    kernel_size: 3
    weight_filler {
      type: "xavier"
    }
    bias_filler {
      type: "constant"
      value: 0
    }
    dilation: 1
  }
}
layer {
  name: "relu5_3"
  type: "ReLU"
  bottom: "conv5_3"
  top: "conv5_3"
}
layer {
  name: "pool5"
  type: "Pooling"
  bottom: "conv5_3"
  top: "pool5"
  pooling_param {
    pool: MAX
    kernel_size: 3
    stride: 1
    pad: 1
  }
}
layer {
  name: "fc6"
  type: "Convolution"
  bottom: "pool5"
  top: "fc6"
  param {
    lr_mult: 1
    decay_mult: 1
  }
  param {
    lr_mult: 2
    decay_mult: 0
  }
  convolution_param {
    num_output: 1024
    pad: 6
    kernel_size: 3
    weight_filler {
      type: "xavier"
    }
    bias_filler {
      type: "constant"
      value: 0
    }
    dilation: 6
  }
}
layer {
  name: "relu6"
  type: "ReLU"
  bottom: "fc6"
  top: "fc6"
}
layer {
  name: "fc7"
  type: "Convolution"
  bottom: "fc6"
  top: "fc7"
  param {
    lr_mult: 1
    decay_mult: 1
  }
  param {
    lr_mult: 2
    decay_mult: 0
  }
  convolution_param {
    num_output: 1024
    kernel_size: 1
    weight_filler {
      type: "xavier"
    }
    bias_filler {
      type: "constant"
      value: 0
    }
  }
}
layer {
  name: "relu7"
  type: "ReLU"
  bottom: "fc7"
  top: "fc7"
}
layer {
  name: "conv6_1"
  type: "Convolution"
  bottom: "fc7"
  top: "conv6_1"
  param {
    lr_mult: 1
    decay_mult: 1
  }
  param {
    lr_mult: 2
    decay_mult: 0
  }
  convolution_param {
    num_output: 256
    pad: 0
    kernel_size: 1
    stride: 1
    weight_filler {
      type: "xavier"
    }
    bias_filler {
      type: "constant"
      value: 0
    }
  }
}
layer {
  name: "conv6_1_relu"
  type: "ReLU"
  bottom: "conv6_1"
  top: "conv6_1"
}
layer {
  name: "conv6_2"
  type: "Convolution"
  bottom: "conv6_1"
  top: "conv6_2"
  param {
    lr_mult: 1
    decay_mult: 1
  }
  param {
    lr_mult: 2
    decay_mult: 0
  }
  convolution_param {
    num_output: 512
    pad: 1
    kernel_size: 3
    stride: 2
    weight_filler {
      type: "xavier"
    }
    bias_filler {
      type: "constant"
      value: 0
    }
  }
}
layer {
  name: "conv6_2_relu"
  type: "ReLU"
  bottom: "conv6_2"
  top: "conv6_2"
}
layer {
  name: "conv7_1"
  type: "Convolution"
  bottom: "conv6_2"
  top: "conv7_1"
  param {
    lr_mult: 1
    decay_mult: 1
  }
  param {
    lr_mult: 2
    decay_mult: 0
  }
  convolution_param {
    num_output: 128
    pad: 0
    kernel_size: 1
    stride: 1
    weight_filler {
      type: "xavier"
    }
    bias_filler {
      type: "constant"
      value: 0
    }
  }
}
layer {
  name: "conv7_1_relu"
  type: "ReLU"
  bottom: "conv7_1"
  top: "conv7_1"
}
layer {
  name: "conv7_2"
  type: "Convolution"
  bottom: "conv7_1"
  top: "conv7_2"
  param {
    lr_mult: 1
    decay_mult: 1
  }
  param {
    lr_mult: 2
    decay_mult: 0
  }
  convolution_param {
    num_output: 256
    pad: 1
    kernel_size: 3
    stride: 2
    weight_filler {
      type: "xavier"
    }
    bias_filler {
      type: "constant"
      value: 0
    }
  }
}
layer {
  name: "conv7_2_relu"
  type: "ReLU"
  bottom: "conv7_2"
  top: "conv7_2"
}
layer {
  name: "conv8_1"
  type: "Convolution"
  bottom: "conv7_2"
  top: "conv8_1"
  param {
    lr_mult: 1
    decay_mult: 1
  }
  param {
    lr_mult: 2
    decay_mult: 0
  }
  convolution_param {
    num_output: 128
    pad: 0
    kernel_size: 1
    stride: 1
    weight_filler {
      type: "xavier"
    }
    bias_filler {
      type: "constant"
      value: 0
    }
  }
}
layer {
  name: "conv8_1_relu"
  type: "ReLU"
  bottom: "conv8_1"
  top: "conv8_1"
}
layer {
  name: "conv8_2"
  type: "Convolution"
  bottom: "conv8_1"
  top: "conv8_2"
  param {
    lr_mult: 1
    decay_mult: 1
  }
  param {
    lr_mult: 2
    decay_mult: 0
  }
  convolution_param {
    num_output: 256
    pad: 0
    kernel_size: 3
    stride: 1
    weight_filler {
      type: "xavier"
    }
    bias_filler {
      type: "constant"
      value: 0
    }
  }
}
layer {
  name: "conv8_2_relu"
  type: "ReLU"
  bottom: "conv8_2"
  top: "conv8_2"
}
layer {
  name: "conv9_1"
  type: "Convolution"
  bottom: "conv8_2"
  top: "conv9_1"
  param {
    lr_mult: 1
    decay_mult: 1
  }
  param {
    lr_mult: 2
    decay_mult: 0
  }
  convolution_param {
    num_output: 128
    pad: 0
    kernel_size: 1
    stride: 1
    weight_filler {
      type: "xavier"
    }
    bias_filler {
      type: "constant"
      value: 0
    }
  }
}
layer {
  name: "conv9_1_relu"
  type: "ReLU"
  bottom: "conv9_1"
  top: "conv9_1"
}
layer {
  name: "conv9_2"
  type: "Convolution"
  bottom: "conv9_1"
  top: "conv9_2"
  param {
    lr_mult: 1
    decay_mult: 1
  }
  param {
    lr_mult: 2
    decay_mult: 0
  }
  convolution_param {
    num_output: 256
    pad: 0
    kernel_size: 3
    stride: 1
    weight_filler {
      type: "xavier"
    }
    bias_filler {
      type: "constant"
      value: 0
    }
  }
}
layer {
  name: "conv9_2_relu"
  type: "ReLU"
  bottom: "conv9_2"
  top: "conv9_2"
}
layer {
  name: "conv4_3_norm"
  type: "Normalize"
  bottom: "conv4_3"
  top: "conv4_3_norm"
  norm_param {
    across_spatial: false
    scale_filler {
      type: "constant"
      value: 20
    }
    channel_shared: false
  }
}
layer {
  name: "conv4_3_norm_mbox_loc"
  type: "Convolution"
  bottom: "conv4_3_norm"
  top: "conv4_3_norm_mbox_loc"
  param {
    lr_mult: 1
    decay_mult: 1
  }
  param {
    lr_mult: 2
    decay_mult: 0
  }
  convolution_param {
    num_output: 16
    pad: 1
    kernel_size: 3
    stride: 1
    weight_filler {
      type: "xavier"
    }
    bias_filler {
      type: "constant"
      value: 0
    }
  }
}
layer {
  name: "conv4_3_norm_mbox_priorbox"
  type: "PriorBox"
  bottom: "conv4_3_norm"
  bottom: "data"
  top: "conv4_3_norm_mbox_priorbox"
  prior_box_param {
    min_size: 21
    max_size: 45
    aspect_ratio: 2
    flip: true
    clip: false
    variance: 0.1
    variance: 0.1
    variance: 0.2
    variance: 0.2
    step: 8
    offset: 0.5
  }
}
layer {
  name: "fc7_mbox_loc"
  type: "Convolution"
  bottom: "fc7"
  top: "fc7_mbox_loc"
  param {
    lr_mult: 1
    decay_mult: 1
  }
  param {
    lr_mult: 2
    decay_mult: 0
  }
  convolution_param {
    num_output: 24
    pad: 1
    kernel_size: 3
    stride: 1
    weight_filler {
      type: "xavier"
    }
    bias_filler {
      type: "constant"
      value: 0
    }
  }
}
layer {
  name: "fc7_mbox_conf"
  type: "Convolution"
  bottom: "fc7"
  top: "fc7_mbox_conf"
  param {
    lr_mult: 1
    decay_mult: 1
  }
  param {
    lr_mult: 2
    decay_mult: 0
  }
  convolution_param {
    num_output: 486
    pad: 1
    kernel_size: 3
    stride: 1
    weight_filler {
      type: "xavier"
    }
    bias_filler {
      type: "constant"
      value: 0
    }
  }
}
layer {
  name: "fc7_mbox_priorbox"
  type: "PriorBox"
  bottom: "fc7"
  bottom: "data"
  top: "fc7_mbox_priorbox"
  prior_box_param {
    min_size: 45
    max_size: 99
    aspect_ratio: 2
    aspect_ratio: 3
    flip: true
    clip: false
    variance: 0.1
    variance: 0.1
    variance: 0.2
    variance: 0.2
    step: 16
    offset: 0.5
  }
}
layer {
  name: "conv6_2_mbox_loc"
  type: "Convolution"
  bottom: "conv6_2"
  top: "conv6_2_mbox_loc"
  param {
    lr_mult: 1
    decay_mult: 1
  }
  param {
    lr_mult: 2
    decay_mult: 0
  }
  convolution_param {
    num_output: 24
    pad: 1
    kernel_size: 3
    stride: 1
    weight_filler {
      type: "xavier"
    }
    bias_filler {
      type: "constant"
      value: 0
    }
  }
}
layer {
  name: "conv6_2_mbox_conf"
  type: "Convolution"
  bottom: "conv6_2"
  top: "conv6_2_mbox_conf"
  param {
    lr_mult: 1
    decay_mult: 1
  }
  param {
    lr_mult: 2
    decay_mult: 0
  }
  convolution_param {
    num_output: 486
    pad: 1
    kernel_size: 3
    stride: 1
    weight_filler {
      type: "xavier"
    }
    bias_filler {
      type: "constant"
      value: 0
    }
  }
}
layer {
  name: "conv6_2_mbox_priorbox"
  type: "PriorBox"
  bottom: "conv6_2"
  bottom: "data"
  top: "conv6_2_mbox_priorbox"
  prior_box_param {
    min_size: 99
    max_size: 153
    aspect_ratio: 2
    aspect_ratio: 3
    flip: true
    clip: false
    variance: 0.1
    variance: 0.1
    variance: 0.2
    variance: 0.2
    step: 32
    offset: 0.5
  }
}
layer {
  name: "conv7_2_mbox_loc"
  type: "Convolution"
  bottom: "conv7_2"
  top: "conv7_2_mbox_loc"
  param {
    lr_mult: 1
    decay_mult: 1
  }
  param {
    lr_mult: 2
    decay_mult: 0
  }
  convolution_param {
    num_output: 24
    pad: 1
    kernel_size: 3
    stride: 1
    weight_filler {
      type: "xavier"
    }
    bias_filler {
      type: "constant"
      value: 0
    }
  }
}
layer {
  name: "conv7_2_mbox_conf"
  type: "Convolution"
  bottom: "conv7_2"
  top: "conv7_2_mbox_conf"
  param {
    lr_mult: 1
    decay_mult: 1
  }
  param {
    lr_mult: 2
    decay_mult: 0
  }
  convolution_param {
    num_output: 486
    pad: 1
    kernel_size: 3
    stride: 1
    weight_filler {
      type: "xavier"
    }
    bias_filler {
      type: "constant"
      value: 0
    }
  }
}
layer {
  name: "conv7_2_mbox_priorbox"
  type: "PriorBox"
  bottom: "conv7_2"
  bottom: "data"
  top: "conv7_2_mbox_priorbox"
  prior_box_param {
    min_size: 153
    max_size: 207
    aspect_ratio: 2
    aspect_ratio: 3
    flip: true
    clip: false
    variance: 0.1
    variance: 0.1
    variance: 0.2
    variance: 0.2
    step: 64
    offset: 0.5
  }
}
layer {
  name: "conv8_2_mbox_loc"
  type: "Convolution"
  bottom: "conv8_2"
  top: "conv8_2_mbox_loc"
  param {
    lr_mult: 1
    decay_mult: 1
  }
  param {
    lr_mult: 2
    decay_mult: 0
  }
  convolution_param {
    num_output: 16
    pad: 1
    kernel_size: 3
    stride: 1
    weight_filler {
      type: "xavier"
    }
    bias_filler {
      type: "constant"
      value: 0
    }
  }
}
layer {
  name: "conv8_2_mbox_conf"
  type: "Convolution"
  bottom: "conv8_2"
  top: "conv8_2_mbox_conf"
  param {
    lr_mult: 1
    decay_mult: 1
  }
  param {
    lr_mult: 2
    decay_mult: 0
  }
  convolution_param {
    num_output: 324
    pad: 1
    kernel_size: 3
    stride: 1
    weight_filler {
      type: "xavier"
    }
    bias_filler {
      type: "constant"
      value: 0
    }
  }
}
layer {
  name: "conv8_2_mbox_priorbox"
  type: "PriorBox"
  bottom: "conv8_2"
  bottom: "data"
  top: "conv8_2_mbox_priorbox"
  prior_box_param {
    min_size: 207
    max_size: 261
    aspect_ratio: 2
    flip: true
    clip: false
    variance: 0.1
    variance: 0.1
    variance: 0.2
    variance: 0.2
    step: 100
    offset: 0.5
  }
}
layer {
  name: "conv9_2_mbox_loc"
  type: "Convolution"
  bottom: "conv9_2"
  top: "conv9_2_mbox_loc"
  param {
    lr_mult: 1
    decay_mult: 1
  }
  param {
    lr_mult: 2
    decay_mult: 0
  }
  convolution_param {
    num_output: 16
    pad: 1
    kernel_size: 3
    stride: 1
    weight_filler {
      type: "xavier"
    }
    bias_filler {
      type: "constant"
      value: 0
    }
  }
}
layer {
  name: "conv9_2_mbox_conf"
  type: "Convolution"
  bottom: "conv9_2"
  top: "conv9_2_mbox_conf"
  param {
    lr_mult: 1
    decay_mult: 1
  }
  param {
    lr_mult: 2
    decay_mult: 0
  }
  convolution_param {
    num_output: 324
    pad: 1
    kernel_size: 3
    stride: 1
    weight_filler {
      type: "xavier"
    }
    bias_filler {
      type: "constant"
      value: 0
    }
  }
}
layer {
  name: "conv9_2_mbox_priorbox"
  type: "PriorBox"
  bottom: "conv9_2"
  bottom: "data"
  top: "conv9_2_mbox_priorbox"
  prior_box_param {
    min_size: 261
    max_size: 315
    aspect_ratio: 2
    flip: true
    clip: false
    variance: 0.1
    variance: 0.1
    variance: 0.2
    variance: 0.2
    step: 300
    offset: 0.5
  }
}
layer {
  name: "fc7_mbox_conf_out"
  type: "Deconvolution"
  bottom: "fc7_mbox_conf"
  top: "fc7_mbox_conf_out"
  param {
    lr_mult: 1
    decay_mult: 1
  }
  convolution_param {
    num_output: 32
    bias_term: false
    pad: 0
    kernel_size: 20
    stride: 1
    weight_filler {
      type: "gaussian"
      std: 0.01
    }
    dilation: 1
  }
}
layer {
  name: "fc7_mbox_conf_out_relu"
  type: "ReLU"
  bottom: "fc7_mbox_conf_out"
  top: "fc7_mbox_conf_out"
}
layer {
  name: "conv6_2_mbox_conf_out"
  type: "Deconvolution"
  bottom: "conv6_2_mbox_conf"
  top: "conv6_2_mbox_conf_out"
  param {
    lr_mult: 1
    decay_mult: 1
  }
  convolution_param {
    num_output: 32
    bias_term: false
    pad: 0
    kernel_size: 29
    stride: 1
    weight_filler {
      type: "gaussian"
      std: 0.01
    }
    dilation: 1
  }
}
layer {
  name: "conv6_2_mbox_conf_out_relu"
  type: "ReLU"
  bottom: "conv6_2_mbox_conf_out"
  top: "conv6_2_mbox_conf_out"
}
layer {
  name: "conv7_2_mbox_conf_out"
  type: "Deconvolution"
  bottom: "conv7_2_mbox_conf"
  top: "conv7_2_mbox_conf_out"
  param {
    lr_mult: 1
    decay_mult: 1
  }
  convolution_param {
    num_output: 32
    bias_term: false
    pad: 0
    kernel_size: 34
    stride: 1
    weight_filler {
      type: "gaussian"
      std: 0.01
    }
    dilation: 1
  }
}
layer {
  name: "conv7_2_mbox_conf_out_relu"
  type: "ReLU"
  bottom: "conv7_2_mbox_conf_out"
  top: "conv7_2_mbox_conf_out"
}
layer {
  name: "conv4_3_context"
  type: "Concat"
  bottom: "fc7_mbox_conf_out"
  bottom: "conv6_2_mbox_conf_out"
  bottom: "conv7_2_mbox_conf_out"
  bottom: "conv4_3_norm"
  top: "conv4_3_context"
  concat_param {
    axis: 1
  }
}
layer {
  name: "conv4_3_norm_mbox_conf"
  type: "Convolution"
  bottom: "conv4_3_context"
  top: "conv4_3_norm_mbox_conf"
  param {
    lr_mult: 1
    decay_mult: 1
  }
  param {
    lr_mult: 2
    decay_mult: 0
  }
  convolution_param {
    num_output: 324
    pad: 1
    kernel_size: 3
    stride: 1
    weight_filler {
      type: "xavier"
    }
    bias_filler {
      type: "constant"
      value: 0
    }
  }
}
layer {
  name: "conv4_3_norm_mbox_loc_perm"
  type: "Permute"
  bottom: "conv4_3_norm_mbox_loc"
  top: "conv4_3_norm_mbox_loc_perm"
  permute_param {
    order: 0
    order: 2
    order: 3
    order: 1
  }
}
layer {
  name: "conv4_3_norm_mbox_loc_flat"
  type: "Flatten"
  bottom: "conv4_3_norm_mbox_loc_perm"
  top: "conv4_3_norm_mbox_loc_flat"
  flatten_param {
    axis: 1
  }
}
layer {
  name: "conv4_3_norm_mbox_conf_perm"
  type: "Permute"
  bottom: "conv4_3_norm_mbox_conf"
  top: "conv4_3_norm_mbox_conf_perm"
  permute_param {
    order: 0
    order: 2
    order: 3
    order: 1
  }
}
layer {
  name: "conv4_3_norm_mbox_conf_flat"
  type: "Flatten"
  bottom: "conv4_3_norm_mbox_conf_perm"
  top: "conv4_3_norm_mbox_conf_flat"
  flatten_param {
    axis: 1
  }
}
layer {
  name: "fc7_mbox_loc_perm"
  type: "Permute"
  bottom: "fc7_mbox_loc"
  top: "fc7_mbox_loc_perm"
  permute_param {
    order: 0
    order: 2
    order: 3
    order: 1
  }
}
layer {
  name: "fc7_mbox_loc_flat"
  type: "Flatten"
  bottom: "fc7_mbox_loc_perm"
  top: "fc7_mbox_loc_flat"
  flatten_param {
    axis: 1
  }
}
layer {
  name: "fc7_mbox_conf_perm"
  type: "Permute"
  bottom: "fc7_mbox_conf"
  top: "fc7_mbox_conf_perm"
  permute_param {
    order: 0
    order: 2
    order: 3
    order: 1
  }
}
layer {
  name: "fc7_mbox_conf_flat"
  type: "Flatten"
  bottom: "fc7_mbox_conf_perm"
  top: "fc7_mbox_conf_flat"
  flatten_param {
    axis: 1
  }
}
layer {
  name: "conv6_2_mbox_loc_perm"
  type: "Permute"
  bottom: "conv6_2_mbox_loc"
  top: "conv6_2_mbox_loc_perm"
  permute_param {
    order: 0
    order: 2
    order: 3
    order: 1
  }
}
layer {
  name: "conv6_2_mbox_loc_flat"
  type: "Flatten"
  bottom: "conv6_2_mbox_loc_perm"
  top: "conv6_2_mbox_loc_flat"
  flatten_param {
    axis: 1
  }
}
layer {
  name: "conv6_2_mbox_conf_perm"
  type: "Permute"
  bottom: "conv6_2_mbox_conf"
  top: "conv6_2_mbox_conf_perm"
  permute_param {
    order: 0
    order: 2
    order: 3
    order: 1
  }
}
layer {
  name: "conv6_2_mbox_conf_flat"
  type: "Flatten"
  bottom: "conv6_2_mbox_conf_perm"
  top: "conv6_2_mbox_conf_flat"
  flatten_param {
    axis: 1
  }
}
layer {
  name: "conv7_2_mbox_loc_perm"
  type: "Permute"
  bottom: "conv7_2_mbox_loc"
  top: "conv7_2_mbox_loc_perm"
  permute_param {
    order: 0
    order: 2
    order: 3
    order: 1
  }
}
layer {
  name: "conv7_2_mbox_loc_flat"
  type: "Flatten"
  bottom: "conv7_2_mbox_loc_perm"
  top: "conv7_2_mbox_loc_flat"
  flatten_param {
    axis: 1
  }
}
layer {
  name: "conv7_2_mbox_conf_perm"
  type: "Permute"
  bottom: "conv7_2_mbox_conf"
  top: "conv7_2_mbox_conf_perm"
  permute_param {
    order: 0
    order: 2
    order: 3
    order: 1
  }
}
layer {
  name: "conv7_2_mbox_conf_flat"
  type: "Flatten"
  bottom: "conv7_2_mbox_conf_perm"
  top: "conv7_2_mbox_conf_flat"
  flatten_param {
    axis: 1
  }
}
layer {
  name: "conv8_2_mbox_loc_perm"
  type: "Permute"
  bottom: "conv8_2_mbox_loc"
  top: "conv8_2_mbox_loc_perm"
  permute_param {
    order: 0
    order: 2
    order: 3
    order: 1
  }
}
layer {
  name: "conv8_2_mbox_loc_flat"
  type: "Flatten"
  bottom: "conv8_2_mbox_loc_perm"
  top: "conv8_2_mbox_loc_flat"
  flatten_param {
    axis: 1
  }
}
layer {
  name: "conv8_2_mbox_conf_perm"
  type: "Permute"
  bottom: "conv8_2_mbox_conf"
  top: "conv8_2_mbox_conf_perm"
  permute_param {
    order: 0
    order: 2
    order: 3
    order: 1
  }
}
layer {
  name: "conv8_2_mbox_conf_flat"
  type: "Flatten"
  bottom: "conv8_2_mbox_conf_perm"
  top: "conv8_2_mbox_conf_flat"
  flatten_param {
    axis: 1
  }
}
layer {
  name: "conv9_2_mbox_loc_perm"
  type: "Permute"
  bottom: "conv9_2_mbox_loc"
  top: "conv9_2_mbox_loc_perm"
  permute_param {
    order: 0
    order: 2
    order: 3
    order: 1
  }
}
layer {
  name: "conv9_2_mbox_loc_flat"
  type: "Flatten"
  bottom: "conv9_2_mbox_loc_perm"
  top: "conv9_2_mbox_loc_flat"
  flatten_param {
    axis: 1
  }
}
layer {
  name: "conv9_2_mbox_conf_perm"
  type: "Permute"
  bottom: "conv9_2_mbox_conf"
  top: "conv9_2_mbox_conf_perm"
  permute_param {
    order: 0
    order: 2
    order: 3
    order: 1
  }
}
layer {
  name: "conv9_2_mbox_conf_flat"
  type: "Flatten"
  bottom: "conv9_2_mbox_conf_perm"
  top: "conv9_2_mbox_conf_flat"
  flatten_param {
    axis: 1
  }
}
layer {
  name: "mbox_loc"
  type: "Concat"
  bottom: "conv4_3_norm_mbox_loc_flat"
  bottom: "fc7_mbox_loc_flat"
  bottom: "conv6_2_mbox_loc_flat"
  bottom: "conv7_2_mbox_loc_flat"
  bottom: "conv8_2_mbox_loc_flat"
  bottom: "conv9_2_mbox_loc_flat"
  top: "mbox_loc"
  concat_param {
    axis: 1
  }
}
layer {
  name: "mbox_conf"
  type: "Concat"
  bottom: "conv4_3_norm_mbox_conf_flat"
  bottom: "fc7_mbox_conf_flat"
  bottom: "conv6_2_mbox_conf_flat"
  bottom: "conv7_2_mbox_conf_flat"
  bottom: "conv8_2_mbox_conf_flat"
  bottom: "conv9_2_mbox_conf_flat"
  top: "mbox_conf"
  concat_param {
    axis: 1
  }
}
layer {
  name: "mbox_priorbox"
  type: "Concat"
  bottom: "conv4_3_norm_mbox_priorbox"
  bottom: "fc7_mbox_priorbox"
  bottom: "conv6_2_mbox_priorbox"
  bottom: "conv7_2_mbox_priorbox"
  bottom: "conv8_2_mbox_priorbox"
  bottom: "conv9_2_mbox_priorbox"
  top: "mbox_priorbox"
  concat_param {
    axis: 2
  }
}
layer {
  name: "mbox_conf_reshape"
  type: "Reshape"
  bottom: "mbox_conf"
  top: "mbox_conf_reshape"
  reshape_param {
    shape {
      dim: 0
      dim: -1
      dim: 81
    }
  }
}
layer {
  name: "mbox_conf_softmax"
  type: "Softmax"
  bottom: "mbox_conf_reshape"
  top: "mbox_conf_softmax"
  softmax_param {
    axis: 2
  }
}
layer {
  name: "mbox_conf_flatten"
  type: "Flatten"
  bottom: "mbox_conf_softmax"
  top: "mbox_conf_flatten"
  flatten_param {
    axis: 1
  }
}
layer {
  name: "detection_out"
  type: "DetectionOutput"
  bottom: "mbox_loc"
  bottom: "mbox_conf_flatten"
  bottom: "mbox_priorbox"
  top: "detection_out"
  include {
    phase: TEST
  }
  detection_output_param {
    num_classes: 81
    share_location: true
    background_label_id: 0
    nms_param {
      nms_threshold: 0.45
      top_k: 400
    }
    save_output_param {
      output_directory: "/home/tushar.vaidya/data/mscoco/results/SSD_300x300_score/"
      output_name_prefix: "detections_minival_ssd300_results"
      output_format: "COCO"
      label_map_file: "data/coco/labelmap_coco.prototxt"
      name_size_file: "data/coco/minival2014_name_size.txt"
      num_test_image: 5000
    }
    code_type: CENTER_SIZE
    keep_top_k: 200
    confidence_threshold: 0.01
  }
}
layer {
  name: "detection_eval"
  type: "DetectionEvaluate"
  bottom: "detection_out"
  bottom: "label"
  top: "detection_eval"
  include {
    phase: TEST
  }
  detection_evaluate_param {
    num_classes: 81
    background_label_id: 0
    overlap_threshold: 0.5
    evaluate_difficult_gt: false
    name_size_file: "data/coco/minival2014_name_size.txt"
  }
}
I1125 23:00:19.479421 30031 layer_factory.hpp:77] Creating layer data
I1125 23:00:19.479493 30031 net.cpp:100] Creating Layer data
I1125 23:00:19.479521 30031 net.cpp:408] data -> data
I1125 23:00:19.479532 30031 net.cpp:408] data -> label
I1125 23:00:19.480264 30098 db_lmdb.cpp:35] Opened lmdb examples/coco/coco_minival_lmdb
I1125 23:00:19.484295 30031 annotated_data_layer.cpp:62] output data size: 8,3,300,300
I1125 23:00:19.499229 30031 net.cpp:150] Setting up data
I1125 23:00:19.499270 30031 net.cpp:157] Top shape: 8 3 300 300 (2160000)
I1125 23:00:19.499275 30031 net.cpp:157] Top shape: 1 1 20 8 (160)
I1125 23:00:19.499279 30031 net.cpp:165] Memory required for data: 8640640
I1125 23:00:19.499284 30031 layer_factory.hpp:77] Creating layer data_data_0_split
I1125 23:00:19.499300 30031 net.cpp:100] Creating Layer data_data_0_split
I1125 23:00:19.499305 30031 net.cpp:434] data_data_0_split <- data
I1125 23:00:19.499315 30031 net.cpp:408] data_data_0_split -> data_data_0_split_0
I1125 23:00:19.499327 30031 net.cpp:408] data_data_0_split -> data_data_0_split_1
I1125 23:00:19.499335 30031 net.cpp:408] data_data_0_split -> data_data_0_split_2
I1125 23:00:19.499342 30031 net.cpp:408] data_data_0_split -> data_data_0_split_3
I1125 23:00:19.499348 30031 net.cpp:408] data_data_0_split -> data_data_0_split_4
I1125 23:00:19.499356 30031 net.cpp:408] data_data_0_split -> data_data_0_split_5
I1125 23:00:19.499362 30031 net.cpp:408] data_data_0_split -> data_data_0_split_6
I1125 23:00:19.499454 30031 net.cpp:150] Setting up data_data_0_split
I1125 23:00:19.499461 30031 net.cpp:157] Top shape: 8 3 300 300 (2160000)
I1125 23:00:19.499467 30031 net.cpp:157] Top shape: 8 3 300 300 (2160000)
I1125 23:00:19.499471 30031 net.cpp:157] Top shape: 8 3 300 300 (2160000)
I1125 23:00:19.499475 30031 net.cpp:157] Top shape: 8 3 300 300 (2160000)
I1125 23:00:19.499480 30031 net.cpp:157] Top shape: 8 3 300 300 (2160000)
I1125 23:00:19.499485 30031 net.cpp:157] Top shape: 8 3 300 300 (2160000)
I1125 23:00:19.499488 30031 net.cpp:157] Top shape: 8 3 300 300 (2160000)
I1125 23:00:19.499492 30031 net.cpp:165] Memory required for data: 69120640
I1125 23:00:19.499496 30031 layer_factory.hpp:77] Creating layer conv1_1
I1125 23:00:19.499510 30031 net.cpp:100] Creating Layer conv1_1
I1125 23:00:19.499513 30031 net.cpp:434] conv1_1 <- data_data_0_split_0
I1125 23:00:19.499521 30031 net.cpp:408] conv1_1 -> conv1_1
I1125 23:00:19.499837 30031 net.cpp:150] Setting up conv1_1
I1125 23:00:19.499845 30031 net.cpp:157] Top shape: 8 64 300 300 (46080000)
I1125 23:00:19.499850 30031 net.cpp:165] Memory required for data: 253440640
I1125 23:00:19.499860 30031 layer_factory.hpp:77] Creating layer relu1_1
I1125 23:00:19.499866 30031 net.cpp:100] Creating Layer relu1_1
I1125 23:00:19.499871 30031 net.cpp:434] relu1_1 <- conv1_1
I1125 23:00:19.499876 30031 net.cpp:395] relu1_1 -> conv1_1 (in-place)
I1125 23:00:19.499883 30031 net.cpp:150] Setting up relu1_1
I1125 23:00:19.499888 30031 net.cpp:157] Top shape: 8 64 300 300 (46080000)
I1125 23:00:19.499891 30031 net.cpp:165] Memory required for data: 437760640
I1125 23:00:19.499896 30031 layer_factory.hpp:77] Creating layer conv1_2
I1125 23:00:19.499904 30031 net.cpp:100] Creating Layer conv1_2
I1125 23:00:19.499907 30031 net.cpp:434] conv1_2 <- conv1_1
I1125 23:00:19.499914 30031 net.cpp:408] conv1_2 -> conv1_2
I1125 23:00:19.500416 30031 net.cpp:150] Setting up conv1_2
I1125 23:00:19.500425 30031 net.cpp:157] Top shape: 8 64 300 300 (46080000)
I1125 23:00:19.500429 30031 net.cpp:165] Memory required for data: 622080640
I1125 23:00:19.500437 30031 layer_factory.hpp:77] Creating layer relu1_2
I1125 23:00:19.500444 30031 net.cpp:100] Creating Layer relu1_2
I1125 23:00:19.500447 30031 net.cpp:434] relu1_2 <- conv1_2
I1125 23:00:19.500453 30031 net.cpp:395] relu1_2 -> conv1_2 (in-place)
I1125 23:00:19.500460 30031 net.cpp:150] Setting up relu1_2
I1125 23:00:19.500464 30031 net.cpp:157] Top shape: 8 64 300 300 (46080000)
I1125 23:00:19.500468 30031 net.cpp:165] Memory required for data: 806400640
I1125 23:00:19.500470 30031 layer_factory.hpp:77] Creating layer pool1
I1125 23:00:19.500478 30031 net.cpp:100] Creating Layer pool1
I1125 23:00:19.500480 30031 net.cpp:434] pool1 <- conv1_2
I1125 23:00:19.500485 30031 net.cpp:408] pool1 -> pool1
I1125 23:00:19.500522 30031 net.cpp:150] Setting up pool1
I1125 23:00:19.500528 30031 net.cpp:157] Top shape: 8 64 150 150 (11520000)
I1125 23:00:19.500531 30031 net.cpp:165] Memory required for data: 852480640
I1125 23:00:19.500535 30031 layer_factory.hpp:77] Creating layer conv2_1
I1125 23:00:19.500542 30031 net.cpp:100] Creating Layer conv2_1
I1125 23:00:19.500547 30031 net.cpp:434] conv2_1 <- pool1
I1125 23:00:19.500555 30031 net.cpp:408] conv2_1 -> conv2_1
I1125 23:00:19.501129 30031 net.cpp:150] Setting up conv2_1
I1125 23:00:19.501137 30031 net.cpp:157] Top shape: 8 128 150 150 (23040000)
I1125 23:00:19.501140 30031 net.cpp:165] Memory required for data: 944640640
I1125 23:00:19.501147 30031 layer_factory.hpp:77] Creating layer relu2_1
I1125 23:00:19.501154 30031 net.cpp:100] Creating Layer relu2_1
I1125 23:00:19.501158 30031 net.cpp:434] relu2_1 <- conv2_1
I1125 23:00:19.501164 30031 net.cpp:395] relu2_1 -> conv2_1 (in-place)
I1125 23:00:19.501171 30031 net.cpp:150] Setting up relu2_1
I1125 23:00:19.501175 30031 net.cpp:157] Top shape: 8 128 150 150 (23040000)
I1125 23:00:19.501178 30031 net.cpp:165] Memory required for data: 1036800640
I1125 23:00:19.501183 30031 layer_factory.hpp:77] Creating layer conv2_2
I1125 23:00:19.501189 30031 net.cpp:100] Creating Layer conv2_2
I1125 23:00:19.501194 30031 net.cpp:434] conv2_2 <- conv2_1
I1125 23:00:19.501199 30031 net.cpp:408] conv2_2 -> conv2_2
I1125 23:00:19.502141 30031 net.cpp:150] Setting up conv2_2
I1125 23:00:19.502148 30031 net.cpp:157] Top shape: 8 128 150 150 (23040000)
I1125 23:00:19.502151 30031 net.cpp:165] Memory required for data: 1128960640
I1125 23:00:19.502156 30031 layer_factory.hpp:77] Creating layer relu2_2
I1125 23:00:19.502162 30031 net.cpp:100] Creating Layer relu2_2
I1125 23:00:19.502166 30031 net.cpp:434] relu2_2 <- conv2_2
I1125 23:00:19.502172 30031 net.cpp:395] relu2_2 -> conv2_2 (in-place)
I1125 23:00:19.502177 30031 net.cpp:150] Setting up relu2_2
I1125 23:00:19.502182 30031 net.cpp:157] Top shape: 8 128 150 150 (23040000)
I1125 23:00:19.502187 30031 net.cpp:165] Memory required for data: 1221120640
I1125 23:00:19.502188 30031 layer_factory.hpp:77] Creating layer pool2
I1125 23:00:19.502193 30031 net.cpp:100] Creating Layer pool2
I1125 23:00:19.502197 30031 net.cpp:434] pool2 <- conv2_2
I1125 23:00:19.502202 30031 net.cpp:408] pool2 -> pool2
I1125 23:00:19.502234 30031 net.cpp:150] Setting up pool2
I1125 23:00:19.502239 30031 net.cpp:157] Top shape: 8 128 75 75 (5760000)
I1125 23:00:19.502243 30031 net.cpp:165] Memory required for data: 1244160640
I1125 23:00:19.502246 30031 layer_factory.hpp:77] Creating layer conv3_1
I1125 23:00:19.502254 30031 net.cpp:100] Creating Layer conv3_1
I1125 23:00:19.502259 30031 net.cpp:434] conv3_1 <- pool2
I1125 23:00:19.502265 30031 net.cpp:408] conv3_1 -> conv3_1
I1125 23:00:19.504909 30031 net.cpp:150] Setting up conv3_1
I1125 23:00:19.504921 30031 net.cpp:157] Top shape: 8 256 75 75 (11520000)
I1125 23:00:19.504925 30031 net.cpp:165] Memory required for data: 1290240640
I1125 23:00:19.504935 30031 layer_factory.hpp:77] Creating layer relu3_1
I1125 23:00:19.504953 30031 net.cpp:100] Creating Layer relu3_1
I1125 23:00:19.504957 30031 net.cpp:434] relu3_1 <- conv3_1
I1125 23:00:19.504963 30031 net.cpp:395] relu3_1 -> conv3_1 (in-place)
I1125 23:00:19.504971 30031 net.cpp:150] Setting up relu3_1
I1125 23:00:19.504976 30031 net.cpp:157] Top shape: 8 256 75 75 (11520000)
I1125 23:00:19.504979 30031 net.cpp:165] Memory required for data: 1336320640
I1125 23:00:19.504982 30031 layer_factory.hpp:77] Creating layer conv3_2
I1125 23:00:19.504992 30031 net.cpp:100] Creating Layer conv3_2
I1125 23:00:19.504995 30031 net.cpp:434] conv3_2 <- conv3_1
I1125 23:00:19.505002 30031 net.cpp:408] conv3_2 -> conv3_2
I1125 23:00:19.509068 30031 net.cpp:150] Setting up conv3_2
I1125 23:00:19.509081 30031 net.cpp:157] Top shape: 8 256 75 75 (11520000)
I1125 23:00:19.509085 30031 net.cpp:165] Memory required for data: 1382400640
I1125 23:00:19.509093 30031 layer_factory.hpp:77] Creating layer relu3_2
I1125 23:00:19.509099 30031 net.cpp:100] Creating Layer relu3_2
I1125 23:00:19.509104 30031 net.cpp:434] relu3_2 <- conv3_2
I1125 23:00:19.509109 30031 net.cpp:395] relu3_2 -> conv3_2 (in-place)
I1125 23:00:19.509116 30031 net.cpp:150] Setting up relu3_2
I1125 23:00:19.509121 30031 net.cpp:157] Top shape: 8 256 75 75 (11520000)
I1125 23:00:19.509124 30031 net.cpp:165] Memory required for data: 1428480640
I1125 23:00:19.509129 30031 layer_factory.hpp:77] Creating layer conv3_3
I1125 23:00:19.509140 30031 net.cpp:100] Creating Layer conv3_3
I1125 23:00:19.509143 30031 net.cpp:434] conv3_3 <- conv3_2
I1125 23:00:19.509150 30031 net.cpp:408] conv3_3 -> conv3_3
I1125 23:00:19.513258 30031 net.cpp:150] Setting up conv3_3
I1125 23:00:19.513273 30031 net.cpp:157] Top shape: 8 256 75 75 (11520000)
I1125 23:00:19.513275 30031 net.cpp:165] Memory required for data: 1474560640
I1125 23:00:19.513283 30031 layer_factory.hpp:77] Creating layer relu3_3
I1125 23:00:19.513289 30031 net.cpp:100] Creating Layer relu3_3
I1125 23:00:19.513293 30031 net.cpp:434] relu3_3 <- conv3_3
I1125 23:00:19.513299 30031 net.cpp:395] relu3_3 -> conv3_3 (in-place)
I1125 23:00:19.513306 30031 net.cpp:150] Setting up relu3_3
I1125 23:00:19.513311 30031 net.cpp:157] Top shape: 8 256 75 75 (11520000)
I1125 23:00:19.513314 30031 net.cpp:165] Memory required for data: 1520640640
I1125 23:00:19.513317 30031 layer_factory.hpp:77] Creating layer pool3
I1125 23:00:19.513324 30031 net.cpp:100] Creating Layer pool3
I1125 23:00:19.513327 30031 net.cpp:434] pool3 <- conv3_3
I1125 23:00:19.513331 30031 net.cpp:408] pool3 -> pool3
I1125 23:00:19.513365 30031 net.cpp:150] Setting up pool3
I1125 23:00:19.513372 30031 net.cpp:157] Top shape: 8 256 38 38 (2957312)
I1125 23:00:19.513375 30031 net.cpp:165] Memory required for data: 1532469888
I1125 23:00:19.513378 30031 layer_factory.hpp:77] Creating layer conv4_1
I1125 23:00:19.513387 30031 net.cpp:100] Creating Layer conv4_1
I1125 23:00:19.513391 30031 net.cpp:434] conv4_1 <- pool3
I1125 23:00:19.513398 30031 net.cpp:408] conv4_1 -> conv4_1
I1125 23:00:19.520997 30031 net.cpp:150] Setting up conv4_1
I1125 23:00:19.521009 30031 net.cpp:157] Top shape: 8 512 38 38 (5914624)
I1125 23:00:19.521014 30031 net.cpp:165] Memory required for data: 1556128384
I1125 23:00:19.521021 30031 layer_factory.hpp:77] Creating layer relu4_1
I1125 23:00:19.521028 30031 net.cpp:100] Creating Layer relu4_1
I1125 23:00:19.521031 30031 net.cpp:434] relu4_1 <- conv4_1
I1125 23:00:19.521039 30031 net.cpp:395] relu4_1 -> conv4_1 (in-place)
I1125 23:00:19.521044 30031 net.cpp:150] Setting up relu4_1
I1125 23:00:19.521049 30031 net.cpp:157] Top shape: 8 512 38 38 (5914624)
I1125 23:00:19.521052 30031 net.cpp:165] Memory required for data: 1579786880
I1125 23:00:19.521056 30031 layer_factory.hpp:77] Creating layer conv4_2
I1125 23:00:19.521064 30031 net.cpp:100] Creating Layer conv4_2
I1125 23:00:19.521069 30031 net.cpp:434] conv4_2 <- conv4_1
I1125 23:00:19.521075 30031 net.cpp:408] conv4_2 -> conv4_2
I1125 23:00:19.535718 30031 net.cpp:150] Setting up conv4_2
I1125 23:00:19.535733 30031 net.cpp:157] Top shape: 8 512 38 38 (5914624)
I1125 23:00:19.535755 30031 net.cpp:165] Memory required for data: 1603445376
I1125 23:00:19.535766 30031 layer_factory.hpp:77] Creating layer relu4_2
I1125 23:00:19.535773 30031 net.cpp:100] Creating Layer relu4_2
I1125 23:00:19.535778 30031 net.cpp:434] relu4_2 <- conv4_2
I1125 23:00:19.535784 30031 net.cpp:395] relu4_2 -> conv4_2 (in-place)
I1125 23:00:19.535790 30031 net.cpp:150] Setting up relu4_2
I1125 23:00:19.535796 30031 net.cpp:157] Top shape: 8 512 38 38 (5914624)
I1125 23:00:19.535799 30031 net.cpp:165] Memory required for data: 1627103872
I1125 23:00:19.535802 30031 layer_factory.hpp:77] Creating layer conv4_3
I1125 23:00:19.535810 30031 net.cpp:100] Creating Layer conv4_3
I1125 23:00:19.535815 30031 net.cpp:434] conv4_3 <- conv4_2
I1125 23:00:19.535820 30031 net.cpp:408] conv4_3 -> conv4_3
I1125 23:00:19.550603 30031 net.cpp:150] Setting up conv4_3
I1125 23:00:19.550621 30031 net.cpp:157] Top shape: 8 512 38 38 (5914624)
I1125 23:00:19.550626 30031 net.cpp:165] Memory required for data: 1650762368
I1125 23:00:19.550633 30031 layer_factory.hpp:77] Creating layer relu4_3
I1125 23:00:19.550640 30031 net.cpp:100] Creating Layer relu4_3
I1125 23:00:19.550645 30031 net.cpp:434] relu4_3 <- conv4_3
I1125 23:00:19.550652 30031 net.cpp:395] relu4_3 -> conv4_3 (in-place)
I1125 23:00:19.550659 30031 net.cpp:150] Setting up relu4_3
I1125 23:00:19.550663 30031 net.cpp:157] Top shape: 8 512 38 38 (5914624)
I1125 23:00:19.550668 30031 net.cpp:165] Memory required for data: 1674420864
I1125 23:00:19.550671 30031 layer_factory.hpp:77] Creating layer conv4_3_relu4_3_0_split
I1125 23:00:19.550678 30031 net.cpp:100] Creating Layer conv4_3_relu4_3_0_split
I1125 23:00:19.550681 30031 net.cpp:434] conv4_3_relu4_3_0_split <- conv4_3
I1125 23:00:19.550686 30031 net.cpp:408] conv4_3_relu4_3_0_split -> conv4_3_relu4_3_0_split_0
I1125 23:00:19.550693 30031 net.cpp:408] conv4_3_relu4_3_0_split -> conv4_3_relu4_3_0_split_1
I1125 23:00:19.550729 30031 net.cpp:150] Setting up conv4_3_relu4_3_0_split
I1125 23:00:19.550734 30031 net.cpp:157] Top shape: 8 512 38 38 (5914624)
I1125 23:00:19.550739 30031 net.cpp:157] Top shape: 8 512 38 38 (5914624)
I1125 23:00:19.550742 30031 net.cpp:165] Memory required for data: 1721737856
I1125 23:00:19.550745 30031 layer_factory.hpp:77] Creating layer pool4
I1125 23:00:19.550752 30031 net.cpp:100] Creating Layer pool4
I1125 23:00:19.550755 30031 net.cpp:434] pool4 <- conv4_3_relu4_3_0_split_0
I1125 23:00:19.550762 30031 net.cpp:408] pool4 -> pool4
I1125 23:00:19.550796 30031 net.cpp:150] Setting up pool4
I1125 23:00:19.550801 30031 net.cpp:157] Top shape: 8 512 19 19 (1478656)
I1125 23:00:19.550804 30031 net.cpp:165] Memory required for data: 1727652480
I1125 23:00:19.550808 30031 layer_factory.hpp:77] Creating layer conv5_1
I1125 23:00:19.550817 30031 net.cpp:100] Creating Layer conv5_1
I1125 23:00:19.550820 30031 net.cpp:434] conv5_1 <- pool4
I1125 23:00:19.550827 30031 net.cpp:408] conv5_1 -> conv5_1
I1125 23:00:19.565982 30031 net.cpp:150] Setting up conv5_1
I1125 23:00:19.565999 30031 net.cpp:157] Top shape: 8 512 19 19 (1478656)
I1125 23:00:19.566002 30031 net.cpp:165] Memory required for data: 1733567104
I1125 23:00:19.566009 30031 layer_factory.hpp:77] Creating layer relu5_1
I1125 23:00:19.566016 30031 net.cpp:100] Creating Layer relu5_1
I1125 23:00:19.566021 30031 net.cpp:434] relu5_1 <- conv5_1
I1125 23:00:19.566027 30031 net.cpp:395] relu5_1 -> conv5_1 (in-place)
I1125 23:00:19.566035 30031 net.cpp:150] Setting up relu5_1
I1125 23:00:19.566040 30031 net.cpp:157] Top shape: 8 512 19 19 (1478656)
I1125 23:00:19.566043 30031 net.cpp:165] Memory required for data: 1739481728
I1125 23:00:19.566046 30031 layer_factory.hpp:77] Creating layer conv5_2
I1125 23:00:19.566054 30031 net.cpp:100] Creating Layer conv5_2
I1125 23:00:19.566058 30031 net.cpp:434] conv5_2 <- conv5_1
I1125 23:00:19.566066 30031 net.cpp:408] conv5_2 -> conv5_2
I1125 23:00:19.580868 30031 net.cpp:150] Setting up conv5_2
I1125 23:00:19.580883 30031 net.cpp:157] Top shape: 8 512 19 19 (1478656)
I1125 23:00:19.580888 30031 net.cpp:165] Memory required for data: 1745396352
I1125 23:00:19.580917 30031 layer_factory.hpp:77] Creating layer relu5_2
I1125 23:00:19.580925 30031 net.cpp:100] Creating Layer relu5_2
I1125 23:00:19.580929 30031 net.cpp:434] relu5_2 <- conv5_2
I1125 23:00:19.580936 30031 net.cpp:395] relu5_2 -> conv5_2 (in-place)
I1125 23:00:19.580943 30031 net.cpp:150] Setting up relu5_2
I1125 23:00:19.580948 30031 net.cpp:157] Top shape: 8 512 19 19 (1478656)
I1125 23:00:19.580951 30031 net.cpp:165] Memory required for data: 1751310976
I1125 23:00:19.580955 30031 layer_factory.hpp:77] Creating layer conv5_3
I1125 23:00:19.580963 30031 net.cpp:100] Creating Layer conv5_3
I1125 23:00:19.580967 30031 net.cpp:434] conv5_3 <- conv5_2
I1125 23:00:19.580972 30031 net.cpp:408] conv5_3 -> conv5_3
I1125 23:00:19.595681 30031 net.cpp:150] Setting up conv5_3
I1125 23:00:19.595696 30031 net.cpp:157] Top shape: 8 512 19 19 (1478656)
I1125 23:00:19.595700 30031 net.cpp:165] Memory required for data: 1757225600
I1125 23:00:19.595706 30031 layer_factory.hpp:77] Creating layer relu5_3
I1125 23:00:19.595718 30031 net.cpp:100] Creating Layer relu5_3
I1125 23:00:19.595722 30031 net.cpp:434] relu5_3 <- conv5_3
I1125 23:00:19.595728 30031 net.cpp:395] relu5_3 -> conv5_3 (in-place)
I1125 23:00:19.595736 30031 net.cpp:150] Setting up relu5_3
I1125 23:00:19.595741 30031 net.cpp:157] Top shape: 8 512 19 19 (1478656)
I1125 23:00:19.595743 30031 net.cpp:165] Memory required for data: 1763140224
I1125 23:00:19.595746 30031 layer_factory.hpp:77] Creating layer pool5
I1125 23:00:19.595752 30031 net.cpp:100] Creating Layer pool5
I1125 23:00:19.595757 30031 net.cpp:434] pool5 <- conv5_3
I1125 23:00:19.595760 30031 net.cpp:408] pool5 -> pool5
I1125 23:00:19.595796 30031 net.cpp:150] Setting up pool5
I1125 23:00:19.595803 30031 net.cpp:157] Top shape: 8 512 19 19 (1478656)
I1125 23:00:19.595806 30031 net.cpp:165] Memory required for data: 1769054848
I1125 23:00:19.595809 30031 layer_factory.hpp:77] Creating layer fc6
I1125 23:00:19.595818 30031 net.cpp:100] Creating Layer fc6
I1125 23:00:19.595821 30031 net.cpp:434] fc6 <- pool5
I1125 23:00:19.595829 30031 net.cpp:408] fc6 -> fc6
I1125 23:00:19.625640 30031 net.cpp:150] Setting up fc6
I1125 23:00:19.625669 30031 net.cpp:157] Top shape: 8 1024 19 19 (2957312)
I1125 23:00:19.625671 30031 net.cpp:165] Memory required for data: 1780884096
I1125 23:00:19.625680 30031 layer_factory.hpp:77] Creating layer relu6
I1125 23:00:19.625690 30031 net.cpp:100] Creating Layer relu6
I1125 23:00:19.625694 30031 net.cpp:434] relu6 <- fc6
I1125 23:00:19.625702 30031 net.cpp:395] relu6 -> fc6 (in-place)
I1125 23:00:19.625711 30031 net.cpp:150] Setting up relu6
I1125 23:00:19.625716 30031 net.cpp:157] Top shape: 8 1024 19 19 (2957312)
I1125 23:00:19.625720 30031 net.cpp:165] Memory required for data: 1792713344
I1125 23:00:19.625722 30031 layer_factory.hpp:77] Creating layer fc7
I1125 23:00:19.625733 30031 net.cpp:100] Creating Layer fc7
I1125 23:00:19.625736 30031 net.cpp:434] fc7 <- fc6
I1125 23:00:19.625742 30031 net.cpp:408] fc7 -> fc7
I1125 23:00:19.632892 30031 net.cpp:150] Setting up fc7
I1125 23:00:19.632905 30031 net.cpp:157] Top shape: 8 1024 19 19 (2957312)
I1125 23:00:19.632910 30031 net.cpp:165] Memory required for data: 1804542592
I1125 23:00:19.632916 30031 layer_factory.hpp:77] Creating layer relu7
I1125 23:00:19.632923 30031 net.cpp:100] Creating Layer relu7
I1125 23:00:19.632928 30031 net.cpp:434] relu7 <- fc7
I1125 23:00:19.632935 30031 net.cpp:395] relu7 -> fc7 (in-place)
I1125 23:00:19.632941 30031 net.cpp:150] Setting up relu7
I1125 23:00:19.632946 30031 net.cpp:157] Top shape: 8 1024 19 19 (2957312)
I1125 23:00:19.632951 30031 net.cpp:165] Memory required for data: 1816371840
I1125 23:00:19.632952 30031 layer_factory.hpp:77] Creating layer fc7_relu7_0_split
I1125 23:00:19.632961 30031 net.cpp:100] Creating Layer fc7_relu7_0_split
I1125 23:00:19.632963 30031 net.cpp:434] fc7_relu7_0_split <- fc7
I1125 23:00:19.632971 30031 net.cpp:408] fc7_relu7_0_split -> fc7_relu7_0_split_0
I1125 23:00:19.632977 30031 net.cpp:408] fc7_relu7_0_split -> fc7_relu7_0_split_1
I1125 23:00:19.633014 30031 net.cpp:408] fc7_relu7_0_split -> fc7_relu7_0_split_2
I1125 23:00:19.633023 30031 net.cpp:408] fc7_relu7_0_split -> fc7_relu7_0_split_3
I1125 23:00:19.633078 30031 net.cpp:150] Setting up fc7_relu7_0_split
I1125 23:00:19.633085 30031 net.cpp:157] Top shape: 8 1024 19 19 (2957312)
I1125 23:00:19.633090 30031 net.cpp:157] Top shape: 8 1024 19 19 (2957312)
I1125 23:00:19.633095 30031 net.cpp:157] Top shape: 8 1024 19 19 (2957312)
I1125 23:00:19.633098 30031 net.cpp:157] Top shape: 8 1024 19 19 (2957312)
I1125 23:00:19.633102 30031 net.cpp:165] Memory required for data: 1863688832
I1125 23:00:19.633105 30031 layer_factory.hpp:77] Creating layer conv6_1
I1125 23:00:19.633114 30031 net.cpp:100] Creating Layer conv6_1
I1125 23:00:19.633119 30031 net.cpp:434] conv6_1 <- fc7_relu7_0_split_0
I1125 23:00:19.633126 30031 net.cpp:408] conv6_1 -> conv6_1
I1125 23:00:19.635653 30031 net.cpp:150] Setting up conv6_1
I1125 23:00:19.635665 30031 net.cpp:157] Top shape: 8 256 19 19 (739328)
I1125 23:00:19.635669 30031 net.cpp:165] Memory required for data: 1866646144
I1125 23:00:19.635676 30031 layer_factory.hpp:77] Creating layer conv6_1_relu
I1125 23:00:19.635684 30031 net.cpp:100] Creating Layer conv6_1_relu
I1125 23:00:19.635687 30031 net.cpp:434] conv6_1_relu <- conv6_1
I1125 23:00:19.635694 30031 net.cpp:395] conv6_1_relu -> conv6_1 (in-place)
I1125 23:00:19.635701 30031 net.cpp:150] Setting up conv6_1_relu
I1125 23:00:19.635706 30031 net.cpp:157] Top shape: 8 256 19 19 (739328)
I1125 23:00:19.635710 30031 net.cpp:165] Memory required for data: 1869603456
I1125 23:00:19.635713 30031 layer_factory.hpp:77] Creating layer conv6_2
I1125 23:00:19.635721 30031 net.cpp:100] Creating Layer conv6_2
I1125 23:00:19.635725 30031 net.cpp:434] conv6_2 <- conv6_1
I1125 23:00:19.635731 30031 net.cpp:408] conv6_2 -> conv6_2
I1125 23:00:19.643398 30031 net.cpp:150] Setting up conv6_2
I1125 23:00:19.643411 30031 net.cpp:157] Top shape: 8 512 10 10 (409600)
I1125 23:00:19.643415 30031 net.cpp:165] Memory required for data: 1871241856
I1125 23:00:19.643429 30031 layer_factory.hpp:77] Creating layer conv6_2_relu
I1125 23:00:19.643436 30031 net.cpp:100] Creating Layer conv6_2_relu
I1125 23:00:19.643440 30031 net.cpp:434] conv6_2_relu <- conv6_2
I1125 23:00:19.643446 30031 net.cpp:395] conv6_2_relu -> conv6_2 (in-place)
I1125 23:00:19.643453 30031 net.cpp:150] Setting up conv6_2_relu
I1125 23:00:19.643458 30031 net.cpp:157] Top shape: 8 512 10 10 (409600)
I1125 23:00:19.643461 30031 net.cpp:165] Memory required for data: 1872880256
I1125 23:00:19.643465 30031 layer_factory.hpp:77] Creating layer conv6_2_conv6_2_relu_0_split
I1125 23:00:19.643471 30031 net.cpp:100] Creating Layer conv6_2_conv6_2_relu_0_split
I1125 23:00:19.643474 30031 net.cpp:434] conv6_2_conv6_2_relu_0_split <- conv6_2
I1125 23:00:19.643481 30031 net.cpp:408] conv6_2_conv6_2_relu_0_split -> conv6_2_conv6_2_relu_0_split_0
I1125 23:00:19.643488 30031 net.cpp:408] conv6_2_conv6_2_relu_0_split -> conv6_2_conv6_2_relu_0_split_1
I1125 23:00:19.643494 30031 net.cpp:408] conv6_2_conv6_2_relu_0_split -> conv6_2_conv6_2_relu_0_split_2
I1125 23:00:19.643501 30031 net.cpp:408] conv6_2_conv6_2_relu_0_split -> conv6_2_conv6_2_relu_0_split_3
I1125 23:00:19.643558 30031 net.cpp:150] Setting up conv6_2_conv6_2_relu_0_split
I1125 23:00:19.643566 30031 net.cpp:157] Top shape: 8 512 10 10 (409600)
I1125 23:00:19.643570 30031 net.cpp:157] Top shape: 8 512 10 10 (409600)
I1125 23:00:19.643591 30031 net.cpp:157] Top shape: 8 512 10 10 (409600)
I1125 23:00:19.643595 30031 net.cpp:157] Top shape: 8 512 10 10 (409600)
I1125 23:00:19.643597 30031 net.cpp:165] Memory required for data: 1879433856
I1125 23:00:19.643600 30031 layer_factory.hpp:77] Creating layer conv7_1
I1125 23:00:19.643610 30031 net.cpp:100] Creating Layer conv7_1
I1125 23:00:19.643613 30031 net.cpp:434] conv7_1 <- conv6_2_conv6_2_relu_0_split_0
I1125 23:00:19.643621 30031 net.cpp:408] conv7_1 -> conv7_1
I1125 23:00:19.644177 30031 net.cpp:150] Setting up conv7_1
I1125 23:00:19.644186 30031 net.cpp:157] Top shape: 8 128 10 10 (102400)
I1125 23:00:19.644201 30031 net.cpp:165] Memory required for data: 1879843456
I1125 23:00:19.644208 30031 layer_factory.hpp:77] Creating layer conv7_1_relu
I1125 23:00:19.644214 30031 net.cpp:100] Creating Layer conv7_1_relu
I1125 23:00:19.644219 30031 net.cpp:434] conv7_1_relu <- conv7_1
I1125 23:00:19.644225 30031 net.cpp:395] conv7_1_relu -> conv7_1 (in-place)
I1125 23:00:19.644232 30031 net.cpp:150] Setting up conv7_1_relu
I1125 23:00:19.644237 30031 net.cpp:157] Top shape: 8 128 10 10 (102400)
I1125 23:00:19.644240 30031 net.cpp:165] Memory required for data: 1880253056
I1125 23:00:19.644243 30031 layer_factory.hpp:77] Creating layer conv7_2
I1125 23:00:19.644251 30031 net.cpp:100] Creating Layer conv7_2
I1125 23:00:19.644255 30031 net.cpp:434] conv7_2 <- conv7_1
I1125 23:00:19.644263 30031 net.cpp:408] conv7_2 -> conv7_2
I1125 23:00:19.646991 30031 net.cpp:150] Setting up conv7_2
I1125 23:00:19.647002 30031 net.cpp:157] Top shape: 8 256 5 5 (51200)
I1125 23:00:19.647006 30031 net.cpp:165] Memory required for data: 1880457856
I1125 23:00:19.647014 30031 layer_factory.hpp:77] Creating layer conv7_2_relu
I1125 23:00:19.647020 30031 net.cpp:100] Creating Layer conv7_2_relu
I1125 23:00:19.647025 30031 net.cpp:434] conv7_2_relu <- conv7_2
I1125 23:00:19.647032 30031 net.cpp:395] conv7_2_relu -> conv7_2 (in-place)
I1125 23:00:19.647038 30031 net.cpp:150] Setting up conv7_2_relu
I1125 23:00:19.647043 30031 net.cpp:157] Top shape: 8 256 5 5 (51200)
I1125 23:00:19.647047 30031 net.cpp:165] Memory required for data: 1880662656
I1125 23:00:19.647049 30031 layer_factory.hpp:77] Creating layer conv7_2_conv7_2_relu_0_split
I1125 23:00:19.647056 30031 net.cpp:100] Creating Layer conv7_2_conv7_2_relu_0_split
I1125 23:00:19.647060 30031 net.cpp:434] conv7_2_conv7_2_relu_0_split <- conv7_2
I1125 23:00:19.647065 30031 net.cpp:408] conv7_2_conv7_2_relu_0_split -> conv7_2_conv7_2_relu_0_split_0
I1125 23:00:19.647073 30031 net.cpp:408] conv7_2_conv7_2_relu_0_split -> conv7_2_conv7_2_relu_0_split_1
I1125 23:00:19.647080 30031 net.cpp:408] conv7_2_conv7_2_relu_0_split -> conv7_2_conv7_2_relu_0_split_2
I1125 23:00:19.647087 30031 net.cpp:408] conv7_2_conv7_2_relu_0_split -> conv7_2_conv7_2_relu_0_split_3
I1125 23:00:19.647143 30031 net.cpp:150] Setting up conv7_2_conv7_2_relu_0_split
I1125 23:00:19.647150 30031 net.cpp:157] Top shape: 8 256 5 5 (51200)
I1125 23:00:19.647155 30031 net.cpp:157] Top shape: 8 256 5 5 (51200)
I1125 23:00:19.647158 30031 net.cpp:157] Top shape: 8 256 5 5 (51200)
I1125 23:00:19.647162 30031 net.cpp:157] Top shape: 8 256 5 5 (51200)
I1125 23:00:19.647166 30031 net.cpp:165] Memory required for data: 1881481856
I1125 23:00:19.647171 30031 layer_factory.hpp:77] Creating layer conv8_1
I1125 23:00:19.647178 30031 net.cpp:100] Creating Layer conv8_1
I1125 23:00:19.647182 30031 net.cpp:434] conv8_1 <- conv7_2_conv7_2_relu_0_split_0
I1125 23:00:19.647189 30031 net.cpp:408] conv8_1 -> conv8_1
I1125 23:00:19.647557 30031 net.cpp:150] Setting up conv8_1
I1125 23:00:19.647563 30031 net.cpp:157] Top shape: 8 128 5 5 (25600)
I1125 23:00:19.647567 30031 net.cpp:165] Memory required for data: 1881584256
I1125 23:00:19.647572 30031 layer_factory.hpp:77] Creating layer conv8_1_relu
I1125 23:00:19.647579 30031 net.cpp:100] Creating Layer conv8_1_relu
I1125 23:00:19.647583 30031 net.cpp:434] conv8_1_relu <- conv8_1
I1125 23:00:19.647589 30031 net.cpp:395] conv8_1_relu -> conv8_1 (in-place)
I1125 23:00:19.647594 30031 net.cpp:150] Setting up conv8_1_relu
I1125 23:00:19.647600 30031 net.cpp:157] Top shape: 8 128 5 5 (25600)
I1125 23:00:19.647603 30031 net.cpp:165] Memory required for data: 1881686656
I1125 23:00:19.647606 30031 layer_factory.hpp:77] Creating layer conv8_2
I1125 23:00:19.647614 30031 net.cpp:100] Creating Layer conv8_2
I1125 23:00:19.647617 30031 net.cpp:434] conv8_2 <- conv8_1
I1125 23:00:19.647624 30031 net.cpp:408] conv8_2 -> conv8_2
I1125 23:00:19.650344 30031 net.cpp:150] Setting up conv8_2
I1125 23:00:19.650357 30031 net.cpp:157] Top shape: 8 256 3 3 (18432)
I1125 23:00:19.650362 30031 net.cpp:165] Memory required for data: 1881760384
I1125 23:00:19.650379 30031 layer_factory.hpp:77] Creating layer conv8_2_relu
I1125 23:00:19.650387 30031 net.cpp:100] Creating Layer conv8_2_relu
I1125 23:00:19.650390 30031 net.cpp:434] conv8_2_relu <- conv8_2
I1125 23:00:19.650398 30031 net.cpp:395] conv8_2_relu -> conv8_2 (in-place)
I1125 23:00:19.650404 30031 net.cpp:150] Setting up conv8_2_relu
I1125 23:00:19.650409 30031 net.cpp:157] Top shape: 8 256 3 3 (18432)
I1125 23:00:19.650413 30031 net.cpp:165] Memory required for data: 1881834112
I1125 23:00:19.650418 30031 layer_factory.hpp:77] Creating layer conv8_2_conv8_2_relu_0_split
I1125 23:00:19.650424 30031 net.cpp:100] Creating Layer conv8_2_conv8_2_relu_0_split
I1125 23:00:19.650427 30031 net.cpp:434] conv8_2_conv8_2_relu_0_split <- conv8_2
I1125 23:00:19.650434 30031 net.cpp:408] conv8_2_conv8_2_relu_0_split -> conv8_2_conv8_2_relu_0_split_0
I1125 23:00:19.650441 30031 net.cpp:408] conv8_2_conv8_2_relu_0_split -> conv8_2_conv8_2_relu_0_split_1
I1125 23:00:19.650449 30031 net.cpp:408] conv8_2_conv8_2_relu_0_split -> conv8_2_conv8_2_relu_0_split_2
I1125 23:00:19.650454 30031 net.cpp:408] conv8_2_conv8_2_relu_0_split -> conv8_2_conv8_2_relu_0_split_3
I1125 23:00:19.650513 30031 net.cpp:150] Setting up conv8_2_conv8_2_relu_0_split
I1125 23:00:19.650521 30031 net.cpp:157] Top shape: 8 256 3 3 (18432)
I1125 23:00:19.650526 30031 net.cpp:157] Top shape: 8 256 3 3 (18432)
I1125 23:00:19.650529 30031 net.cpp:157] Top shape: 8 256 3 3 (18432)
I1125 23:00:19.650533 30031 net.cpp:157] Top shape: 8 256 3 3 (18432)
I1125 23:00:19.650537 30031 net.cpp:165] Memory required for data: 1882129024
I1125 23:00:19.650542 30031 layer_factory.hpp:77] Creating layer conv9_1
I1125 23:00:19.650550 30031 net.cpp:100] Creating Layer conv9_1
I1125 23:00:19.650554 30031 net.cpp:434] conv9_1 <- conv8_2_conv8_2_relu_0_split_0
I1125 23:00:19.650563 30031 net.cpp:408] conv9_1 -> conv9_1
I1125 23:00:19.652081 30031 net.cpp:150] Setting up conv9_1
I1125 23:00:19.652093 30031 net.cpp:157] Top shape: 8 128 3 3 (9216)
I1125 23:00:19.652097 30031 net.cpp:165] Memory required for data: 1882165888
I1125 23:00:19.652104 30031 layer_factory.hpp:77] Creating layer conv9_1_relu
I1125 23:00:19.652112 30031 net.cpp:100] Creating Layer conv9_1_relu
I1125 23:00:19.652115 30031 net.cpp:434] conv9_1_relu <- conv9_1
I1125 23:00:19.652122 30031 net.cpp:395] conv9_1_relu -> conv9_1 (in-place)
I1125 23:00:19.652128 30031 net.cpp:150] Setting up conv9_1_relu
I1125 23:00:19.652133 30031 net.cpp:157] Top shape: 8 128 3 3 (9216)
I1125 23:00:19.652137 30031 net.cpp:165] Memory required for data: 1882202752
I1125 23:00:19.652140 30031 layer_factory.hpp:77] Creating layer conv9_2
I1125 23:00:19.652149 30031 net.cpp:100] Creating Layer conv9_2
I1125 23:00:19.652153 30031 net.cpp:434] conv9_2 <- conv9_1
I1125 23:00:19.652158 30031 net.cpp:408] conv9_2 -> conv9_2
I1125 23:00:19.654860 30031 net.cpp:150] Setting up conv9_2
I1125 23:00:19.654873 30031 net.cpp:157] Top shape: 8 256 1 1 (2048)
I1125 23:00:19.654877 30031 net.cpp:165] Memory required for data: 1882210944
I1125 23:00:19.654884 30031 layer_factory.hpp:77] Creating layer conv9_2_relu
I1125 23:00:19.654891 30031 net.cpp:100] Creating Layer conv9_2_relu
I1125 23:00:19.654896 30031 net.cpp:434] conv9_2_relu <- conv9_2
I1125 23:00:19.654901 30031 net.cpp:395] conv9_2_relu -> conv9_2 (in-place)
I1125 23:00:19.654907 30031 net.cpp:150] Setting up conv9_2_relu
I1125 23:00:19.654912 30031 net.cpp:157] Top shape: 8 256 1 1 (2048)
I1125 23:00:19.654917 30031 net.cpp:165] Memory required for data: 1882219136
I1125 23:00:19.654919 30031 layer_factory.hpp:77] Creating layer conv9_2_conv9_2_relu_0_split
I1125 23:00:19.654925 30031 net.cpp:100] Creating Layer conv9_2_conv9_2_relu_0_split
I1125 23:00:19.654928 30031 net.cpp:434] conv9_2_conv9_2_relu_0_split <- conv9_2
I1125 23:00:19.654937 30031 net.cpp:408] conv9_2_conv9_2_relu_0_split -> conv9_2_conv9_2_relu_0_split_0
I1125 23:00:19.654943 30031 net.cpp:408] conv9_2_conv9_2_relu_0_split -> conv9_2_conv9_2_relu_0_split_1
I1125 23:00:19.654960 30031 net.cpp:408] conv9_2_conv9_2_relu_0_split -> conv9_2_conv9_2_relu_0_split_2
I1125 23:00:19.655010 30031 net.cpp:150] Setting up conv9_2_conv9_2_relu_0_split
I1125 23:00:19.655017 30031 net.cpp:157] Top shape: 8 256 1 1 (2048)
I1125 23:00:19.655021 30031 net.cpp:157] Top shape: 8 256 1 1 (2048)
I1125 23:00:19.655026 30031 net.cpp:157] Top shape: 8 256 1 1 (2048)
I1125 23:00:19.655030 30031 net.cpp:165] Memory required for data: 1882243712
I1125 23:00:19.655033 30031 layer_factory.hpp:77] Creating layer conv4_3_norm
I1125 23:00:19.655043 30031 net.cpp:100] Creating Layer conv4_3_norm
I1125 23:00:19.655047 30031 net.cpp:434] conv4_3_norm <- conv4_3_relu4_3_0_split_1
I1125 23:00:19.655053 30031 net.cpp:408] conv4_3_norm -> conv4_3_norm
I1125 23:00:19.655194 30031 net.cpp:150] Setting up conv4_3_norm
I1125 23:00:19.655200 30031 net.cpp:157] Top shape: 8 512 38 38 (5914624)
I1125 23:00:19.655205 30031 net.cpp:165] Memory required for data: 1905902208
I1125 23:00:19.655208 30031 layer_factory.hpp:77] Creating layer conv4_3_norm_conv4_3_norm_0_split
I1125 23:00:19.655218 30031 net.cpp:100] Creating Layer conv4_3_norm_conv4_3_norm_0_split
I1125 23:00:19.655222 30031 net.cpp:434] conv4_3_norm_conv4_3_norm_0_split <- conv4_3_norm
I1125 23:00:19.655227 30031 net.cpp:408] conv4_3_norm_conv4_3_norm_0_split -> conv4_3_norm_conv4_3_norm_0_split_0
I1125 23:00:19.655234 30031 net.cpp:408] conv4_3_norm_conv4_3_norm_0_split -> conv4_3_norm_conv4_3_norm_0_split_1
I1125 23:00:19.655241 30031 net.cpp:408] conv4_3_norm_conv4_3_norm_0_split -> conv4_3_norm_conv4_3_norm_0_split_2
I1125 23:00:19.655280 30031 net.cpp:150] Setting up conv4_3_norm_conv4_3_norm_0_split
I1125 23:00:19.655287 30031 net.cpp:157] Top shape: 8 512 38 38 (5914624)
I1125 23:00:19.655292 30031 net.cpp:157] Top shape: 8 512 38 38 (5914624)
I1125 23:00:19.655297 30031 net.cpp:157] Top shape: 8 512 38 38 (5914624)
I1125 23:00:19.655299 30031 net.cpp:165] Memory required for data: 1976877696
I1125 23:00:19.655303 30031 layer_factory.hpp:77] Creating layer conv4_3_norm_mbox_loc
I1125 23:00:19.655311 30031 net.cpp:100] Creating Layer conv4_3_norm_mbox_loc
I1125 23:00:19.655316 30031 net.cpp:434] conv4_3_norm_mbox_loc <- conv4_3_norm_conv4_3_norm_0_split_0
I1125 23:00:19.655323 30031 net.cpp:408] conv4_3_norm_mbox_loc -> conv4_3_norm_mbox_loc
I1125 23:00:19.655879 30031 net.cpp:150] Setting up conv4_3_norm_mbox_loc
I1125 23:00:19.655887 30031 net.cpp:157] Top shape: 8 16 38 38 (184832)
I1125 23:00:19.655891 30031 net.cpp:165] Memory required for data: 1977617024
I1125 23:00:19.655896 30031 layer_factory.hpp:77] Creating layer conv4_3_norm_mbox_priorbox
I1125 23:00:19.655905 30031 net.cpp:100] Creating Layer conv4_3_norm_mbox_priorbox
I1125 23:00:19.655908 30031 net.cpp:434] conv4_3_norm_mbox_priorbox <- conv4_3_norm_conv4_3_norm_0_split_1
I1125 23:00:19.655913 30031 net.cpp:434] conv4_3_norm_mbox_priorbox <- data_data_0_split_1
I1125 23:00:19.655921 30031 net.cpp:408] conv4_3_norm_mbox_priorbox -> conv4_3_norm_mbox_priorbox
I1125 23:00:19.655948 30031 net.cpp:150] Setting up conv4_3_norm_mbox_priorbox
I1125 23:00:19.655954 30031 net.cpp:157] Top shape: 1 2 23104 (46208)
I1125 23:00:19.655958 30031 net.cpp:165] Memory required for data: 1977801856
I1125 23:00:19.655961 30031 layer_factory.hpp:77] Creating layer fc7_mbox_loc
I1125 23:00:19.655971 30031 net.cpp:100] Creating Layer fc7_mbox_loc
I1125 23:00:19.655974 30031 net.cpp:434] fc7_mbox_loc <- fc7_relu7_0_split_1
I1125 23:00:19.655982 30031 net.cpp:408] fc7_mbox_loc -> fc7_mbox_loc
I1125 23:00:19.657236 30031 net.cpp:150] Setting up fc7_mbox_loc
I1125 23:00:19.657246 30031 net.cpp:157] Top shape: 8 24 19 19 (69312)
I1125 23:00:19.657250 30031 net.cpp:165] Memory required for data: 1978079104
I1125 23:00:19.657258 30031 layer_factory.hpp:77] Creating layer fc7_mbox_conf
I1125 23:00:19.657275 30031 net.cpp:100] Creating Layer fc7_mbox_conf
I1125 23:00:19.657280 30031 net.cpp:434] fc7_mbox_conf <- fc7_relu7_0_split_2
I1125 23:00:19.657287 30031 net.cpp:408] fc7_mbox_conf -> fc7_mbox_conf
I1125 23:00:19.685473 30031 net.cpp:150] Setting up fc7_mbox_conf
I1125 23:00:19.685515 30031 net.cpp:157] Top shape: 8 486 19 19 (1403568)
I1125 23:00:19.685536 30031 net.cpp:165] Memory required for data: 1983693376
I1125 23:00:19.685544 30031 layer_factory.hpp:77] Creating layer fc7_mbox_conf_fc7_mbox_conf_0_split
I1125 23:00:19.685551 30031 net.cpp:100] Creating Layer fc7_mbox_conf_fc7_mbox_conf_0_split
I1125 23:00:19.685555 30031 net.cpp:434] fc7_mbox_conf_fc7_mbox_conf_0_split <- fc7_mbox_conf
I1125 23:00:19.685564 30031 net.cpp:408] fc7_mbox_conf_fc7_mbox_conf_0_split -> fc7_mbox_conf_fc7_mbox_conf_0_split_0
I1125 23:00:19.685573 30031 net.cpp:408] fc7_mbox_conf_fc7_mbox_conf_0_split -> fc7_mbox_conf_fc7_mbox_conf_0_split_1
I1125 23:00:19.685612 30031 net.cpp:150] Setting up fc7_mbox_conf_fc7_mbox_conf_0_split
I1125 23:00:19.685619 30031 net.cpp:157] Top shape: 8 486 19 19 (1403568)
I1125 23:00:19.685623 30031 net.cpp:157] Top shape: 8 486 19 19 (1403568)
I1125 23:00:19.685626 30031 net.cpp:165] Memory required for data: 1994921920
I1125 23:00:19.685631 30031 layer_factory.hpp:77] Creating layer fc7_mbox_priorbox
I1125 23:00:19.685641 30031 net.cpp:100] Creating Layer fc7_mbox_priorbox
I1125 23:00:19.685645 30031 net.cpp:434] fc7_mbox_priorbox <- fc7_relu7_0_split_3
I1125 23:00:19.685650 30031 net.cpp:434] fc7_mbox_priorbox <- data_data_0_split_2
I1125 23:00:19.685659 30031 net.cpp:408] fc7_mbox_priorbox -> fc7_mbox_priorbox
I1125 23:00:19.685685 30031 net.cpp:150] Setting up fc7_mbox_priorbox
I1125 23:00:19.685691 30031 net.cpp:157] Top shape: 1 2 8664 (17328)
I1125 23:00:19.685695 30031 net.cpp:165] Memory required for data: 1994991232
I1125 23:00:19.685699 30031 layer_factory.hpp:77] Creating layer conv6_2_mbox_loc
I1125 23:00:19.685709 30031 net.cpp:100] Creating Layer conv6_2_mbox_loc
I1125 23:00:19.685714 30031 net.cpp:434] conv6_2_mbox_loc <- conv6_2_conv6_2_relu_0_split_1
I1125 23:00:19.685719 30031 net.cpp:408] conv6_2_mbox_loc -> conv6_2_mbox_loc
I1125 23:00:19.686476 30031 net.cpp:150] Setting up conv6_2_mbox_loc
I1125 23:00:19.686484 30031 net.cpp:157] Top shape: 8 24 10 10 (19200)
I1125 23:00:19.686488 30031 net.cpp:165] Memory required for data: 1995068032
I1125 23:00:19.686494 30031 layer_factory.hpp:77] Creating layer conv6_2_mbox_conf
I1125 23:00:19.686504 30031 net.cpp:100] Creating Layer conv6_2_mbox_conf
I1125 23:00:19.686508 30031 net.cpp:434] conv6_2_mbox_conf <- conv6_2_conv6_2_relu_0_split_2
I1125 23:00:19.686517 30031 net.cpp:408] conv6_2_mbox_conf -> conv6_2_mbox_conf
I1125 23:00:19.700829 30031 net.cpp:150] Setting up conv6_2_mbox_conf
I1125 23:00:19.700845 30031 net.cpp:157] Top shape: 8 486 10 10 (388800)
I1125 23:00:19.700847 30031 net.cpp:165] Memory required for data: 1996623232
I1125 23:00:19.700855 30031 layer_factory.hpp:77] Creating layer conv6_2_mbox_conf_conv6_2_mbox_conf_0_split
I1125 23:00:19.700862 30031 net.cpp:100] Creating Layer conv6_2_mbox_conf_conv6_2_mbox_conf_0_split
I1125 23:00:19.700867 30031 net.cpp:434] conv6_2_mbox_conf_conv6_2_mbox_conf_0_split <- conv6_2_mbox_conf
I1125 23:00:19.700875 30031 net.cpp:408] conv6_2_mbox_conf_conv6_2_mbox_conf_0_split -> conv6_2_mbox_conf_conv6_2_mbox_conf_0_split_0
I1125 23:00:19.700883 30031 net.cpp:408] conv6_2_mbox_conf_conv6_2_mbox_conf_0_split -> conv6_2_mbox_conf_conv6_2_mbox_conf_0_split_1
I1125 23:00:19.700922 30031 net.cpp:150] Setting up conv6_2_mbox_conf_conv6_2_mbox_conf_0_split
I1125 23:00:19.700928 30031 net.cpp:157] Top shape: 8 486 10 10 (388800)
I1125 23:00:19.700933 30031 net.cpp:157] Top shape: 8 486 10 10 (388800)
I1125 23:00:19.700937 30031 net.cpp:165] Memory required for data: 1999733632
I1125 23:00:19.700940 30031 layer_factory.hpp:77] Creating layer conv6_2_mbox_priorbox
I1125 23:00:19.700949 30031 net.cpp:100] Creating Layer conv6_2_mbox_priorbox
I1125 23:00:19.700953 30031 net.cpp:434] conv6_2_mbox_priorbox <- conv6_2_conv6_2_relu_0_split_3
I1125 23:00:19.700958 30031 net.cpp:434] conv6_2_mbox_priorbox <- data_data_0_split_3
I1125 23:00:19.700963 30031 net.cpp:408] conv6_2_mbox_priorbox -> conv6_2_mbox_priorbox
I1125 23:00:19.701010 30031 net.cpp:150] Setting up conv6_2_mbox_priorbox
I1125 23:00:19.701017 30031 net.cpp:157] Top shape: 1 2 2400 (4800)
I1125 23:00:19.701020 30031 net.cpp:165] Memory required for data: 1999752832
I1125 23:00:19.701023 30031 layer_factory.hpp:77] Creating layer conv7_2_mbox_loc
I1125 23:00:19.701035 30031 net.cpp:100] Creating Layer conv7_2_mbox_loc
I1125 23:00:19.701038 30031 net.cpp:434] conv7_2_mbox_loc <- conv7_2_conv7_2_relu_0_split_1
I1125 23:00:19.701047 30031 net.cpp:408] conv7_2_mbox_loc -> conv7_2_mbox_loc
I1125 23:00:19.701532 30031 net.cpp:150] Setting up conv7_2_mbox_loc
I1125 23:00:19.701539 30031 net.cpp:157] Top shape: 8 24 5 5 (4800)
I1125 23:00:19.701544 30031 net.cpp:165] Memory required for data: 1999772032
I1125 23:00:19.701548 30031 layer_factory.hpp:77] Creating layer conv7_2_mbox_conf
I1125 23:00:19.701557 30031 net.cpp:100] Creating Layer conv7_2_mbox_conf
I1125 23:00:19.701562 30031 net.cpp:434] conv7_2_mbox_conf <- conv7_2_conv7_2_relu_0_split_2
I1125 23:00:19.701570 30031 net.cpp:408] conv7_2_mbox_conf -> conv7_2_mbox_conf
I1125 23:00:19.708887 30031 net.cpp:150] Setting up conv7_2_mbox_conf
I1125 23:00:19.708900 30031 net.cpp:157] Top shape: 8 486 5 5 (97200)
I1125 23:00:19.708905 30031 net.cpp:165] Memory required for data: 2000160832
I1125 23:00:19.708912 30031 layer_factory.hpp:77] Creating layer conv7_2_mbox_conf_conv7_2_mbox_conf_0_split
I1125 23:00:19.708921 30031 net.cpp:100] Creating Layer conv7_2_mbox_conf_conv7_2_mbox_conf_0_split
I1125 23:00:19.708925 30031 net.cpp:434] conv7_2_mbox_conf_conv7_2_mbox_conf_0_split <- conv7_2_mbox_conf
I1125 23:00:19.708935 30031 net.cpp:408] conv7_2_mbox_conf_conv7_2_mbox_conf_0_split -> conv7_2_mbox_conf_conv7_2_mbox_conf_0_split_0
I1125 23:00:19.708942 30031 net.cpp:408] conv7_2_mbox_conf_conv7_2_mbox_conf_0_split -> conv7_2_mbox_conf_conv7_2_mbox_conf_0_split_1
I1125 23:00:19.708981 30031 net.cpp:150] Setting up conv7_2_mbox_conf_conv7_2_mbox_conf_0_split
I1125 23:00:19.708988 30031 net.cpp:157] Top shape: 8 486 5 5 (97200)
I1125 23:00:19.708993 30031 net.cpp:157] Top shape: 8 486 5 5 (97200)
I1125 23:00:19.708997 30031 net.cpp:165] Memory required for data: 2000938432
I1125 23:00:19.709000 30031 layer_factory.hpp:77] Creating layer conv7_2_mbox_priorbox
I1125 23:00:19.709007 30031 net.cpp:100] Creating Layer conv7_2_mbox_priorbox
I1125 23:00:19.709012 30031 net.cpp:434] conv7_2_mbox_priorbox <- conv7_2_conv7_2_relu_0_split_3
I1125 23:00:19.709017 30031 net.cpp:434] conv7_2_mbox_priorbox <- data_data_0_split_4
I1125 23:00:19.709023 30031 net.cpp:408] conv7_2_mbox_priorbox -> conv7_2_mbox_priorbox
I1125 23:00:19.709048 30031 net.cpp:150] Setting up conv7_2_mbox_priorbox
I1125 23:00:19.709054 30031 net.cpp:157] Top shape: 1 2 600 (1200)
I1125 23:00:19.709059 30031 net.cpp:165] Memory required for data: 2000943232
I1125 23:00:19.709061 30031 layer_factory.hpp:77] Creating layer conv8_2_mbox_loc
I1125 23:00:19.709071 30031 net.cpp:100] Creating Layer conv8_2_mbox_loc
I1125 23:00:19.709075 30031 net.cpp:434] conv8_2_mbox_loc <- conv8_2_conv8_2_relu_0_split_1
I1125 23:00:19.709084 30031 net.cpp:408] conv8_2_mbox_loc -> conv8_2_mbox_loc
I1125 23:00:19.709499 30031 net.cpp:150] Setting up conv8_2_mbox_loc
I1125 23:00:19.709506 30031 net.cpp:157] Top shape: 8 16 3 3 (1152)
I1125 23:00:19.709511 30031 net.cpp:165] Memory required for data: 2000947840
I1125 23:00:19.709517 30031 layer_factory.hpp:77] Creating layer conv8_2_mbox_conf
I1125 23:00:19.709527 30031 net.cpp:100] Creating Layer conv8_2_mbox_conf
I1125 23:00:19.709532 30031 net.cpp:434] conv8_2_mbox_conf <- conv8_2_conv8_2_relu_0_split_2
I1125 23:00:19.709538 30031 net.cpp:408] conv8_2_mbox_conf -> conv8_2_mbox_conf
I1125 23:00:19.714596 30031 net.cpp:150] Setting up conv8_2_mbox_conf
I1125 23:00:19.714609 30031 net.cpp:157] Top shape: 8 324 3 3 (23328)
I1125 23:00:19.714613 30031 net.cpp:165] Memory required for data: 2001041152
I1125 23:00:19.714633 30031 layer_factory.hpp:77] Creating layer conv8_2_mbox_priorbox
I1125 23:00:19.714642 30031 net.cpp:100] Creating Layer conv8_2_mbox_priorbox
I1125 23:00:19.714658 30031 net.cpp:434] conv8_2_mbox_priorbox <- conv8_2_conv8_2_relu_0_split_3
I1125 23:00:19.714663 30031 net.cpp:434] conv8_2_mbox_priorbox <- data_data_0_split_5
I1125 23:00:19.714671 30031 net.cpp:408] conv8_2_mbox_priorbox -> conv8_2_mbox_priorbox
I1125 23:00:19.714699 30031 net.cpp:150] Setting up conv8_2_mbox_priorbox
I1125 23:00:19.714706 30031 net.cpp:157] Top shape: 1 2 144 (288)
I1125 23:00:19.714709 30031 net.cpp:165] Memory required for data: 2001042304
I1125 23:00:19.714714 30031 layer_factory.hpp:77] Creating layer conv9_2_mbox_loc
I1125 23:00:19.714723 30031 net.cpp:100] Creating Layer conv9_2_mbox_loc
I1125 23:00:19.714727 30031 net.cpp:434] conv9_2_mbox_loc <- conv9_2_conv9_2_relu_0_split_0
I1125 23:00:19.714733 30031 net.cpp:408] conv9_2_mbox_loc -> conv9_2_mbox_loc
I1125 23:00:19.715126 30031 net.cpp:150] Setting up conv9_2_mbox_loc
I1125 23:00:19.715134 30031 net.cpp:157] Top shape: 8 16 1 1 (128)
I1125 23:00:19.715137 30031 net.cpp:165] Memory required for data: 2001042816
I1125 23:00:19.715142 30031 layer_factory.hpp:77] Creating layer conv9_2_mbox_conf
I1125 23:00:19.715153 30031 net.cpp:100] Creating Layer conv9_2_mbox_conf
I1125 23:00:19.715157 30031 net.cpp:434] conv9_2_mbox_conf <- conv9_2_conv9_2_relu_0_split_1
I1125 23:00:19.715163 30031 net.cpp:408] conv9_2_mbox_conf -> conv9_2_mbox_conf
I1125 23:00:19.720260 30031 net.cpp:150] Setting up conv9_2_mbox_conf
I1125 23:00:19.720273 30031 net.cpp:157] Top shape: 8 324 1 1 (2592)
I1125 23:00:19.720278 30031 net.cpp:165] Memory required for data: 2001053184
I1125 23:00:19.720283 30031 layer_factory.hpp:77] Creating layer conv9_2_mbox_priorbox
I1125 23:00:19.720293 30031 net.cpp:100] Creating Layer conv9_2_mbox_priorbox
I1125 23:00:19.720297 30031 net.cpp:434] conv9_2_mbox_priorbox <- conv9_2_conv9_2_relu_0_split_2
I1125 23:00:19.720304 30031 net.cpp:434] conv9_2_mbox_priorbox <- data_data_0_split_6
I1125 23:00:19.720310 30031 net.cpp:408] conv9_2_mbox_priorbox -> conv9_2_mbox_priorbox
I1125 23:00:19.720337 30031 net.cpp:150] Setting up conv9_2_mbox_priorbox
I1125 23:00:19.720343 30031 net.cpp:157] Top shape: 1 2 16 (32)
I1125 23:00:19.720346 30031 net.cpp:165] Memory required for data: 2001053312
I1125 23:00:19.720350 30031 layer_factory.hpp:77] Creating layer fc7_mbox_conf_out
I1125 23:00:19.720360 30031 net.cpp:100] Creating Layer fc7_mbox_conf_out
I1125 23:00:19.720365 30031 net.cpp:434] fc7_mbox_conf_out <- fc7_mbox_conf_fc7_mbox_conf_0_split_0
I1125 23:00:19.720371 30031 net.cpp:408] fc7_mbox_conf_out -> fc7_mbox_conf_out
I1125 23:00:19.780163 30031 net.cpp:150] Setting up fc7_mbox_conf_out
I1125 23:00:19.780211 30031 net.cpp:157] Top shape: 8 32 38 38 (369664)
I1125 23:00:19.780215 30031 net.cpp:165] Memory required for data: 2002531968
I1125 23:00:19.780223 30031 layer_factory.hpp:77] Creating layer fc7_mbox_conf_out_relu
I1125 23:00:19.780233 30031 net.cpp:100] Creating Layer fc7_mbox_conf_out_relu
I1125 23:00:19.780238 30031 net.cpp:434] fc7_mbox_conf_out_relu <- fc7_mbox_conf_out
I1125 23:00:19.780249 30031 net.cpp:395] fc7_mbox_conf_out_relu -> fc7_mbox_conf_out (in-place)
I1125 23:00:19.780259 30031 net.cpp:150] Setting up fc7_mbox_conf_out_relu
I1125 23:00:19.780264 30031 net.cpp:157] Top shape: 8 32 38 38 (369664)
I1125 23:00:19.780267 30031 net.cpp:165] Memory required for data: 2004010624
I1125 23:00:19.780272 30031 layer_factory.hpp:77] Creating layer conv6_2_mbox_conf_out
I1125 23:00:19.780282 30031 net.cpp:100] Creating Layer conv6_2_mbox_conf_out
I1125 23:00:19.780287 30031 net.cpp:434] conv6_2_mbox_conf_out <- conv6_2_mbox_conf_conv6_2_mbox_conf_0_split_0
I1125 23:00:19.780293 30031 net.cpp:408] conv6_2_mbox_conf_out -> conv6_2_mbox_conf_out
I1125 23:00:19.907272 30031 net.cpp:150] Setting up conv6_2_mbox_conf_out
I1125 23:00:19.907330 30031 net.cpp:157] Top shape: 8 32 38 38 (369664)
I1125 23:00:19.907335 30031 net.cpp:165] Memory required for data: 2005489280
I1125 23:00:19.907344 30031 layer_factory.hpp:77] Creating layer conv6_2_mbox_conf_out_relu
I1125 23:00:19.907356 30031 net.cpp:100] Creating Layer conv6_2_mbox_conf_out_relu
I1125 23:00:19.907388 30031 net.cpp:434] conv6_2_mbox_conf_out_relu <- conv6_2_mbox_conf_out
I1125 23:00:19.907399 30031 net.cpp:395] conv6_2_mbox_conf_out_relu -> conv6_2_mbox_conf_out (in-place)
I1125 23:00:19.907410 30031 net.cpp:150] Setting up conv6_2_mbox_conf_out_relu
I1125 23:00:19.907416 30031 net.cpp:157] Top shape: 8 32 38 38 (369664)
I1125 23:00:19.907419 30031 net.cpp:165] Memory required for data: 2006967936
I1125 23:00:19.907423 30031 layer_factory.hpp:77] Creating layer conv7_2_mbox_conf_out
I1125 23:00:19.907433 30031 net.cpp:100] Creating Layer conv7_2_mbox_conf_out
I1125 23:00:19.907438 30031 net.cpp:434] conv7_2_mbox_conf_out <- conv7_2_mbox_conf_conv7_2_mbox_conf_0_split_0
I1125 23:00:19.907449 30031 net.cpp:408] conv7_2_mbox_conf_out -> conv7_2_mbox_conf_out
I1125 23:00:20.088850 30031 net.cpp:150] Setting up conv7_2_mbox_conf_out
I1125 23:00:20.088894 30031 net.cpp:157] Top shape: 8 32 38 38 (369664)
I1125 23:00:20.088898 30031 net.cpp:165] Memory required for data: 2008446592
I1125 23:00:20.088909 30031 layer_factory.hpp:77] Creating layer conv7_2_mbox_conf_out_relu
I1125 23:00:20.088923 30031 net.cpp:100] Creating Layer conv7_2_mbox_conf_out_relu
I1125 23:00:20.088932 30031 net.cpp:434] conv7_2_mbox_conf_out_relu <- conv7_2_mbox_conf_out
I1125 23:00:20.088941 30031 net.cpp:395] conv7_2_mbox_conf_out_relu -> conv7_2_mbox_conf_out (in-place)
I1125 23:00:20.088953 30031 net.cpp:150] Setting up conv7_2_mbox_conf_out_relu
I1125 23:00:20.088958 30031 net.cpp:157] Top shape: 8 32 38 38 (369664)
I1125 23:00:20.088961 30031 net.cpp:165] Memory required for data: 2009925248
I1125 23:00:20.088966 30031 layer_factory.hpp:77] Creating layer conv4_3_context
I1125 23:00:20.088977 30031 net.cpp:100] Creating Layer conv4_3_context
I1125 23:00:20.088984 30031 net.cpp:434] conv4_3_context <- fc7_mbox_conf_out
I1125 23:00:20.088989 30031 net.cpp:434] conv4_3_context <- conv6_2_mbox_conf_out
I1125 23:00:20.088994 30031 net.cpp:434] conv4_3_context <- conv7_2_mbox_conf_out
I1125 23:00:20.088999 30031 net.cpp:434] conv4_3_context <- conv4_3_norm_conv4_3_norm_0_split_2
I1125 23:00:20.089005 30031 net.cpp:408] conv4_3_context -> conv4_3_context
I1125 23:00:20.089035 30031 net.cpp:150] Setting up conv4_3_context
I1125 23:00:20.089040 30031 net.cpp:157] Top shape: 8 608 38 38 (7023616)
I1125 23:00:20.089045 30031 net.cpp:165] Memory required for data: 2038019712
I1125 23:00:20.089047 30031 layer_factory.hpp:77] Creating layer conv4_3_norm_mbox_conf
I1125 23:00:20.089063 30031 net.cpp:100] Creating Layer conv4_3_norm_mbox_conf
I1125 23:00:20.089068 30031 net.cpp:434] conv4_3_norm_mbox_conf <- conv4_3_context
I1125 23:00:20.089076 30031 net.cpp:408] conv4_3_norm_mbox_conf -> conv4_3_norm_mbox_conf
I1125 23:00:20.100116 30031 net.cpp:150] Setting up conv4_3_norm_mbox_conf
I1125 23:00:20.100128 30031 net.cpp:157] Top shape: 8 324 38 38 (3742848)
I1125 23:00:20.100132 30031 net.cpp:165] Memory required for data: 2052991104
I1125 23:00:20.100139 30031 layer_factory.hpp:77] Creating layer conv4_3_norm_mbox_loc_perm
I1125 23:00:20.100150 30031 net.cpp:100] Creating Layer conv4_3_norm_mbox_loc_perm
I1125 23:00:20.100155 30031 net.cpp:434] conv4_3_norm_mbox_loc_perm <- conv4_3_norm_mbox_loc
I1125 23:00:20.100164 30031 net.cpp:408] conv4_3_norm_mbox_loc_perm -> conv4_3_norm_mbox_loc_perm
I1125 23:00:20.100255 30031 net.cpp:150] Setting up conv4_3_norm_mbox_loc_perm
I1125 23:00:20.100262 30031 net.cpp:157] Top shape: 8 38 38 16 (184832)
I1125 23:00:20.100265 30031 net.cpp:165] Memory required for data: 2053730432
I1125 23:00:20.100270 30031 layer_factory.hpp:77] Creating layer conv4_3_norm_mbox_loc_flat
I1125 23:00:20.100277 30031 net.cpp:100] Creating Layer conv4_3_norm_mbox_loc_flat
I1125 23:00:20.100281 30031 net.cpp:434] conv4_3_norm_mbox_loc_flat <- conv4_3_norm_mbox_loc_perm
I1125 23:00:20.100287 30031 net.cpp:408] conv4_3_norm_mbox_loc_flat -> conv4_3_norm_mbox_loc_flat
I1125 23:00:20.100311 30031 net.cpp:150] Setting up conv4_3_norm_mbox_loc_flat
I1125 23:00:20.100318 30031 net.cpp:157] Top shape: 8 23104 (184832)
I1125 23:00:20.100343 30031 net.cpp:165] Memory required for data: 2054469760
I1125 23:00:20.100347 30031 layer_factory.hpp:77] Creating layer conv4_3_norm_mbox_conf_perm
I1125 23:00:20.100354 30031 net.cpp:100] Creating Layer conv4_3_norm_mbox_conf_perm
I1125 23:00:20.100358 30031 net.cpp:434] conv4_3_norm_mbox_conf_perm <- conv4_3_norm_mbox_conf
I1125 23:00:20.100363 30031 net.cpp:408] conv4_3_norm_mbox_conf_perm -> conv4_3_norm_mbox_conf_perm
I1125 23:00:20.100446 30031 net.cpp:150] Setting up conv4_3_norm_mbox_conf_perm
I1125 23:00:20.100453 30031 net.cpp:157] Top shape: 8 38 38 324 (3742848)
I1125 23:00:20.100456 30031 net.cpp:165] Memory required for data: 2069441152
I1125 23:00:20.100461 30031 layer_factory.hpp:77] Creating layer conv4_3_norm_mbox_conf_flat
I1125 23:00:20.100467 30031 net.cpp:100] Creating Layer conv4_3_norm_mbox_conf_flat
I1125 23:00:20.100471 30031 net.cpp:434] conv4_3_norm_mbox_conf_flat <- conv4_3_norm_mbox_conf_perm
I1125 23:00:20.100476 30031 net.cpp:408] conv4_3_norm_mbox_conf_flat -> conv4_3_norm_mbox_conf_flat
I1125 23:00:20.100498 30031 net.cpp:150] Setting up conv4_3_norm_mbox_conf_flat
I1125 23:00:20.100503 30031 net.cpp:157] Top shape: 8 467856 (3742848)
I1125 23:00:20.100507 30031 net.cpp:165] Memory required for data: 2084412544
I1125 23:00:20.100510 30031 layer_factory.hpp:77] Creating layer fc7_mbox_loc_perm
I1125 23:00:20.100517 30031 net.cpp:100] Creating Layer fc7_mbox_loc_perm
I1125 23:00:20.100522 30031 net.cpp:434] fc7_mbox_loc_perm <- fc7_mbox_loc
I1125 23:00:20.100528 30031 net.cpp:408] fc7_mbox_loc_perm -> fc7_mbox_loc_perm
I1125 23:00:20.100607 30031 net.cpp:150] Setting up fc7_mbox_loc_perm
I1125 23:00:20.100612 30031 net.cpp:157] Top shape: 8 19 19 24 (69312)
I1125 23:00:20.100616 30031 net.cpp:165] Memory required for data: 2084689792
I1125 23:00:20.100620 30031 layer_factory.hpp:77] Creating layer fc7_mbox_loc_flat
I1125 23:00:20.100630 30031 net.cpp:100] Creating Layer fc7_mbox_loc_flat
I1125 23:00:20.100634 30031 net.cpp:434] fc7_mbox_loc_flat <- fc7_mbox_loc_perm
I1125 23:00:20.100639 30031 net.cpp:408] fc7_mbox_loc_flat -> fc7_mbox_loc_flat
I1125 23:00:20.100661 30031 net.cpp:150] Setting up fc7_mbox_loc_flat
I1125 23:00:20.100666 30031 net.cpp:157] Top shape: 8 8664 (69312)
I1125 23:00:20.100669 30031 net.cpp:165] Memory required for data: 2084967040
I1125 23:00:20.100672 30031 layer_factory.hpp:77] Creating layer fc7_mbox_conf_perm
I1125 23:00:20.100679 30031 net.cpp:100] Creating Layer fc7_mbox_conf_perm
I1125 23:00:20.100683 30031 net.cpp:434] fc7_mbox_conf_perm <- fc7_mbox_conf_fc7_mbox_conf_0_split_1
I1125 23:00:20.100688 30031 net.cpp:408] fc7_mbox_conf_perm -> fc7_mbox_conf_perm
I1125 23:00:20.100769 30031 net.cpp:150] Setting up fc7_mbox_conf_perm
I1125 23:00:20.100775 30031 net.cpp:157] Top shape: 8 19 19 486 (1403568)
I1125 23:00:20.100778 30031 net.cpp:165] Memory required for data: 2090581312
I1125 23:00:20.100781 30031 layer_factory.hpp:77] Creating layer fc7_mbox_conf_flat
I1125 23:00:20.100788 30031 net.cpp:100] Creating Layer fc7_mbox_conf_flat
I1125 23:00:20.100793 30031 net.cpp:434] fc7_mbox_conf_flat <- fc7_mbox_conf_perm
I1125 23:00:20.100798 30031 net.cpp:408] fc7_mbox_conf_flat -> fc7_mbox_conf_flat
I1125 23:00:20.100819 30031 net.cpp:150] Setting up fc7_mbox_conf_flat
I1125 23:00:20.100826 30031 net.cpp:157] Top shape: 8 175446 (1403568)
I1125 23:00:20.100829 30031 net.cpp:165] Memory required for data: 2096195584
I1125 23:00:20.100832 30031 layer_factory.hpp:77] Creating layer conv6_2_mbox_loc_perm
I1125 23:00:20.100839 30031 net.cpp:100] Creating Layer conv6_2_mbox_loc_perm
I1125 23:00:20.100843 30031 net.cpp:434] conv6_2_mbox_loc_perm <- conv6_2_mbox_loc
I1125 23:00:20.100849 30031 net.cpp:408] conv6_2_mbox_loc_perm -> conv6_2_mbox_loc_perm
I1125 23:00:20.100927 30031 net.cpp:150] Setting up conv6_2_mbox_loc_perm
I1125 23:00:20.100934 30031 net.cpp:157] Top shape: 8 10 10 24 (19200)
I1125 23:00:20.100936 30031 net.cpp:165] Memory required for data: 2096272384
I1125 23:00:20.100940 30031 layer_factory.hpp:77] Creating layer conv6_2_mbox_loc_flat
I1125 23:00:20.100956 30031 net.cpp:100] Creating Layer conv6_2_mbox_loc_flat
I1125 23:00:20.100960 30031 net.cpp:434] conv6_2_mbox_loc_flat <- conv6_2_mbox_loc_perm
I1125 23:00:20.100966 30031 net.cpp:408] conv6_2_mbox_loc_flat -> conv6_2_mbox_loc_flat
I1125 23:00:20.100989 30031 net.cpp:150] Setting up conv6_2_mbox_loc_flat
I1125 23:00:20.100996 30031 net.cpp:157] Top shape: 8 2400 (19200)
I1125 23:00:20.100998 30031 net.cpp:165] Memory required for data: 2096349184
I1125 23:00:20.101001 30031 layer_factory.hpp:77] Creating layer conv6_2_mbox_conf_perm
I1125 23:00:20.101009 30031 net.cpp:100] Creating Layer conv6_2_mbox_conf_perm
I1125 23:00:20.101012 30031 net.cpp:434] conv6_2_mbox_conf_perm <- conv6_2_mbox_conf_conv6_2_mbox_conf_0_split_1
I1125 23:00:20.101018 30031 net.cpp:408] conv6_2_mbox_conf_perm -> conv6_2_mbox_conf_perm
I1125 23:00:20.101095 30031 net.cpp:150] Setting up conv6_2_mbox_conf_perm
I1125 23:00:20.101101 30031 net.cpp:157] Top shape: 8 10 10 486 (388800)
I1125 23:00:20.101104 30031 net.cpp:165] Memory required for data: 2097904384
I1125 23:00:20.101107 30031 layer_factory.hpp:77] Creating layer conv6_2_mbox_conf_flat
I1125 23:00:20.101112 30031 net.cpp:100] Creating Layer conv6_2_mbox_conf_flat
I1125 23:00:20.101117 30031 net.cpp:434] conv6_2_mbox_conf_flat <- conv6_2_mbox_conf_perm
I1125 23:00:20.101125 30031 net.cpp:408] conv6_2_mbox_conf_flat -> conv6_2_mbox_conf_flat
I1125 23:00:20.101145 30031 net.cpp:150] Setting up conv6_2_mbox_conf_flat
I1125 23:00:20.101150 30031 net.cpp:157] Top shape: 8 48600 (388800)
I1125 23:00:20.101155 30031 net.cpp:165] Memory required for data: 2099459584
I1125 23:00:20.101157 30031 layer_factory.hpp:77] Creating layer conv7_2_mbox_loc_perm
I1125 23:00:20.101162 30031 net.cpp:100] Creating Layer conv7_2_mbox_loc_perm
I1125 23:00:20.101166 30031 net.cpp:434] conv7_2_mbox_loc_perm <- conv7_2_mbox_loc
I1125 23:00:20.101173 30031 net.cpp:408] conv7_2_mbox_loc_perm -> conv7_2_mbox_loc_perm
I1125 23:00:20.101253 30031 net.cpp:150] Setting up conv7_2_mbox_loc_perm
I1125 23:00:20.101258 30031 net.cpp:157] Top shape: 8 5 5 24 (4800)
I1125 23:00:20.101260 30031 net.cpp:165] Memory required for data: 2099478784
I1125 23:00:20.101264 30031 layer_factory.hpp:77] Creating layer conv7_2_mbox_loc_flat
I1125 23:00:20.101271 30031 net.cpp:100] Creating Layer conv7_2_mbox_loc_flat
I1125 23:00:20.101275 30031 net.cpp:434] conv7_2_mbox_loc_flat <- conv7_2_mbox_loc_perm
I1125 23:00:20.101280 30031 net.cpp:408] conv7_2_mbox_loc_flat -> conv7_2_mbox_loc_flat
I1125 23:00:20.101301 30031 net.cpp:150] Setting up conv7_2_mbox_loc_flat
I1125 23:00:20.101306 30031 net.cpp:157] Top shape: 8 600 (4800)
I1125 23:00:20.101310 30031 net.cpp:165] Memory required for data: 2099497984
I1125 23:00:20.101312 30031 layer_factory.hpp:77] Creating layer conv7_2_mbox_conf_perm
I1125 23:00:20.101320 30031 net.cpp:100] Creating Layer conv7_2_mbox_conf_perm
I1125 23:00:20.101325 30031 net.cpp:434] conv7_2_mbox_conf_perm <- conv7_2_mbox_conf_conv7_2_mbox_conf_0_split_1
I1125 23:00:20.101330 30031 net.cpp:408] conv7_2_mbox_conf_perm -> conv7_2_mbox_conf_perm
I1125 23:00:20.101405 30031 net.cpp:150] Setting up conv7_2_mbox_conf_perm
I1125 23:00:20.101411 30031 net.cpp:157] Top shape: 8 5 5 486 (97200)
I1125 23:00:20.101415 30031 net.cpp:165] Memory required for data: 2099886784
I1125 23:00:20.101418 30031 layer_factory.hpp:77] Creating layer conv7_2_mbox_conf_flat
I1125 23:00:20.101423 30031 net.cpp:100] Creating Layer conv7_2_mbox_conf_flat
I1125 23:00:20.101428 30031 net.cpp:434] conv7_2_mbox_conf_flat <- conv7_2_mbox_conf_perm
I1125 23:00:20.101434 30031 net.cpp:408] conv7_2_mbox_conf_flat -> conv7_2_mbox_conf_flat
I1125 23:00:20.101455 30031 net.cpp:150] Setting up conv7_2_mbox_conf_flat
I1125 23:00:20.101460 30031 net.cpp:157] Top shape: 8 12150 (97200)
I1125 23:00:20.101464 30031 net.cpp:165] Memory required for data: 2100275584
I1125 23:00:20.101466 30031 layer_factory.hpp:77] Creating layer conv8_2_mbox_loc_perm
I1125 23:00:20.101471 30031 net.cpp:100] Creating Layer conv8_2_mbox_loc_perm
I1125 23:00:20.101483 30031 net.cpp:434] conv8_2_mbox_loc_perm <- conv8_2_mbox_loc
I1125 23:00:20.101490 30031 net.cpp:408] conv8_2_mbox_loc_perm -> conv8_2_mbox_loc_perm
I1125 23:00:20.101572 30031 net.cpp:150] Setting up conv8_2_mbox_loc_perm
I1125 23:00:20.101578 30031 net.cpp:157] Top shape: 8 3 3 16 (1152)
I1125 23:00:20.101582 30031 net.cpp:165] Memory required for data: 2100280192
I1125 23:00:20.101585 30031 layer_factory.hpp:77] Creating layer conv8_2_mbox_loc_flat
I1125 23:00:20.101591 30031 net.cpp:100] Creating Layer conv8_2_mbox_loc_flat
I1125 23:00:20.101595 30031 net.cpp:434] conv8_2_mbox_loc_flat <- conv8_2_mbox_loc_perm
I1125 23:00:20.101601 30031 net.cpp:408] conv8_2_mbox_loc_flat -> conv8_2_mbox_loc_flat
I1125 23:00:20.101626 30031 net.cpp:150] Setting up conv8_2_mbox_loc_flat
I1125 23:00:20.101631 30031 net.cpp:157] Top shape: 8 144 (1152)
I1125 23:00:20.101634 30031 net.cpp:165] Memory required for data: 2100284800
I1125 23:00:20.101637 30031 layer_factory.hpp:77] Creating layer conv8_2_mbox_conf_perm
I1125 23:00:20.101644 30031 net.cpp:100] Creating Layer conv8_2_mbox_conf_perm
I1125 23:00:20.101647 30031 net.cpp:434] conv8_2_mbox_conf_perm <- conv8_2_mbox_conf
I1125 23:00:20.101653 30031 net.cpp:408] conv8_2_mbox_conf_perm -> conv8_2_mbox_conf_perm
I1125 23:00:20.101730 30031 net.cpp:150] Setting up conv8_2_mbox_conf_perm
I1125 23:00:20.101737 30031 net.cpp:157] Top shape: 8 3 3 324 (23328)
I1125 23:00:20.101739 30031 net.cpp:165] Memory required for data: 2100378112
I1125 23:00:20.101742 30031 layer_factory.hpp:77] Creating layer conv8_2_mbox_conf_flat
I1125 23:00:20.101747 30031 net.cpp:100] Creating Layer conv8_2_mbox_conf_flat
I1125 23:00:20.101752 30031 net.cpp:434] conv8_2_mbox_conf_flat <- conv8_2_mbox_conf_perm
I1125 23:00:20.101758 30031 net.cpp:408] conv8_2_mbox_conf_flat -> conv8_2_mbox_conf_flat
I1125 23:00:20.101778 30031 net.cpp:150] Setting up conv8_2_mbox_conf_flat
I1125 23:00:20.101784 30031 net.cpp:157] Top shape: 8 2916 (23328)
I1125 23:00:20.101788 30031 net.cpp:165] Memory required for data: 2100471424
I1125 23:00:20.101790 30031 layer_factory.hpp:77] Creating layer conv9_2_mbox_loc_perm
I1125 23:00:20.101796 30031 net.cpp:100] Creating Layer conv9_2_mbox_loc_perm
I1125 23:00:20.101800 30031 net.cpp:434] conv9_2_mbox_loc_perm <- conv9_2_mbox_loc
I1125 23:00:20.101809 30031 net.cpp:408] conv9_2_mbox_loc_perm -> conv9_2_mbox_loc_perm
I1125 23:00:20.101886 30031 net.cpp:150] Setting up conv9_2_mbox_loc_perm
I1125 23:00:20.101891 30031 net.cpp:157] Top shape: 8 1 1 16 (128)
I1125 23:00:20.101894 30031 net.cpp:165] Memory required for data: 2100471936
I1125 23:00:20.101898 30031 layer_factory.hpp:77] Creating layer conv9_2_mbox_loc_flat
I1125 23:00:20.101904 30031 net.cpp:100] Creating Layer conv9_2_mbox_loc_flat
I1125 23:00:20.101908 30031 net.cpp:434] conv9_2_mbox_loc_flat <- conv9_2_mbox_loc_perm
I1125 23:00:20.101914 30031 net.cpp:408] conv9_2_mbox_loc_flat -> conv9_2_mbox_loc_flat
I1125 23:00:20.101934 30031 net.cpp:150] Setting up conv9_2_mbox_loc_flat
I1125 23:00:20.101939 30031 net.cpp:157] Top shape: 8 16 (128)
I1125 23:00:20.101943 30031 net.cpp:165] Memory required for data: 2100472448
I1125 23:00:20.101944 30031 layer_factory.hpp:77] Creating layer conv9_2_mbox_conf_perm
I1125 23:00:20.101954 30031 net.cpp:100] Creating Layer conv9_2_mbox_conf_perm
I1125 23:00:20.101958 30031 net.cpp:434] conv9_2_mbox_conf_perm <- conv9_2_mbox_conf
I1125 23:00:20.101965 30031 net.cpp:408] conv9_2_mbox_conf_perm -> conv9_2_mbox_conf_perm
I1125 23:00:20.102044 30031 net.cpp:150] Setting up conv9_2_mbox_conf_perm
I1125 23:00:20.102051 30031 net.cpp:157] Top shape: 8 1 1 324 (2592)
I1125 23:00:20.102054 30031 net.cpp:165] Memory required for data: 2100482816
I1125 23:00:20.102056 30031 layer_factory.hpp:77] Creating layer conv9_2_mbox_conf_flat
I1125 23:00:20.102062 30031 net.cpp:100] Creating Layer conv9_2_mbox_conf_flat
I1125 23:00:20.102066 30031 net.cpp:434] conv9_2_mbox_conf_flat <- conv9_2_mbox_conf_perm
I1125 23:00:20.102073 30031 net.cpp:408] conv9_2_mbox_conf_flat -> conv9_2_mbox_conf_flat
I1125 23:00:20.102102 30031 net.cpp:150] Setting up conv9_2_mbox_conf_flat
I1125 23:00:20.102109 30031 net.cpp:157] Top shape: 8 324 (2592)
I1125 23:00:20.102113 30031 net.cpp:165] Memory required for data: 2100493184
I1125 23:00:20.102115 30031 layer_factory.hpp:77] Creating layer mbox_loc
I1125 23:00:20.102123 30031 net.cpp:100] Creating Layer mbox_loc
I1125 23:00:20.102125 30031 net.cpp:434] mbox_loc <- conv4_3_norm_mbox_loc_flat
I1125 23:00:20.102131 30031 net.cpp:434] mbox_loc <- fc7_mbox_loc_flat
I1125 23:00:20.102135 30031 net.cpp:434] mbox_loc <- conv6_2_mbox_loc_flat
I1125 23:00:20.102139 30031 net.cpp:434] mbox_loc <- conv7_2_mbox_loc_flat
I1125 23:00:20.102144 30031 net.cpp:434] mbox_loc <- conv8_2_mbox_loc_flat
I1125 23:00:20.102149 30031 net.cpp:434] mbox_loc <- conv9_2_mbox_loc_flat
I1125 23:00:20.102154 30031 net.cpp:408] mbox_loc -> mbox_loc
I1125 23:00:20.102177 30031 net.cpp:150] Setting up mbox_loc
I1125 23:00:20.102182 30031 net.cpp:157] Top shape: 8 34928 (279424)
I1125 23:00:20.102186 30031 net.cpp:165] Memory required for data: 2101610880
I1125 23:00:20.102188 30031 layer_factory.hpp:77] Creating layer mbox_conf
I1125 23:00:20.102195 30031 net.cpp:100] Creating Layer mbox_conf
I1125 23:00:20.102198 30031 net.cpp:434] mbox_conf <- conv4_3_norm_mbox_conf_flat
I1125 23:00:20.102203 30031 net.cpp:434] mbox_conf <- fc7_mbox_conf_flat
I1125 23:00:20.102207 30031 net.cpp:434] mbox_conf <- conv6_2_mbox_conf_flat
I1125 23:00:20.102211 30031 net.cpp:434] mbox_conf <- conv7_2_mbox_conf_flat
I1125 23:00:20.102216 30031 net.cpp:434] mbox_conf <- conv8_2_mbox_conf_flat
I1125 23:00:20.102219 30031 net.cpp:434] mbox_conf <- conv9_2_mbox_conf_flat
I1125 23:00:20.102224 30031 net.cpp:408] mbox_conf -> mbox_conf
I1125 23:00:20.102246 30031 net.cpp:150] Setting up mbox_conf
I1125 23:00:20.102252 30031 net.cpp:157] Top shape: 8 707292 (5658336)
I1125 23:00:20.102254 30031 net.cpp:165] Memory required for data: 2124244224
I1125 23:00:20.102257 30031 layer_factory.hpp:77] Creating layer mbox_priorbox
I1125 23:00:20.102263 30031 net.cpp:100] Creating Layer mbox_priorbox
I1125 23:00:20.102267 30031 net.cpp:434] mbox_priorbox <- conv4_3_norm_mbox_priorbox
I1125 23:00:20.102272 30031 net.cpp:434] mbox_priorbox <- fc7_mbox_priorbox
I1125 23:00:20.102277 30031 net.cpp:434] mbox_priorbox <- conv6_2_mbox_priorbox
I1125 23:00:20.102280 30031 net.cpp:434] mbox_priorbox <- conv7_2_mbox_priorbox
I1125 23:00:20.102283 30031 net.cpp:434] mbox_priorbox <- conv8_2_mbox_priorbox
I1125 23:00:20.102288 30031 net.cpp:434] mbox_priorbox <- conv9_2_mbox_priorbox
I1125 23:00:20.102293 30031 net.cpp:408] mbox_priorbox -> mbox_priorbox
I1125 23:00:20.102315 30031 net.cpp:150] Setting up mbox_priorbox
I1125 23:00:20.102321 30031 net.cpp:157] Top shape: 1 2 34928 (69856)
I1125 23:00:20.102324 30031 net.cpp:165] Memory required for data: 2124523648
I1125 23:00:20.102327 30031 layer_factory.hpp:77] Creating layer mbox_conf_reshape
I1125 23:00:20.102335 30031 net.cpp:100] Creating Layer mbox_conf_reshape
I1125 23:00:20.102339 30031 net.cpp:434] mbox_conf_reshape <- mbox_conf
I1125 23:00:20.102344 30031 net.cpp:408] mbox_conf_reshape -> mbox_conf_reshape
I1125 23:00:20.102377 30031 net.cpp:150] Setting up mbox_conf_reshape
I1125 23:00:20.102382 30031 net.cpp:157] Top shape: 8 8732 81 (5658336)
I1125 23:00:20.102386 30031 net.cpp:165] Memory required for data: 2147156992
I1125 23:00:20.102391 30031 layer_factory.hpp:77] Creating layer mbox_conf_softmax
I1125 23:00:20.102396 30031 net.cpp:100] Creating Layer mbox_conf_softmax
I1125 23:00:20.102401 30031 net.cpp:434] mbox_conf_softmax <- mbox_conf_reshape
I1125 23:00:20.102407 30031 net.cpp:408] mbox_conf_softmax -> mbox_conf_softmax
I1125 23:00:20.102474 30031 net.cpp:150] Setting up mbox_conf_softmax
I1125 23:00:20.102480 30031 net.cpp:157] Top shape: 8 8732 81 (5658336)
I1125 23:00:20.102483 30031 net.cpp:165] Memory required for data: 2169790336
I1125 23:00:20.102486 30031 layer_factory.hpp:77] Creating layer mbox_conf_flatten
I1125 23:00:20.102493 30031 net.cpp:100] Creating Layer mbox_conf_flatten
I1125 23:00:20.102504 30031 net.cpp:434] mbox_conf_flatten <- mbox_conf_softmax
I1125 23:00:20.102509 30031 net.cpp:408] mbox_conf_flatten -> mbox_conf_flatten
I1125 23:00:20.102532 30031 net.cpp:150] Setting up mbox_conf_flatten
I1125 23:00:20.102538 30031 net.cpp:157] Top shape: 8 707292 (5658336)
I1125 23:00:20.102542 30031 net.cpp:165] Memory required for data: 2192423680
I1125 23:00:20.102545 30031 layer_factory.hpp:77] Creating layer detection_out
I1125 23:00:20.102568 30031 net.cpp:100] Creating Layer detection_out
I1125 23:00:20.102573 30031 net.cpp:434] detection_out <- mbox_loc
I1125 23:00:20.102577 30031 net.cpp:434] detection_out <- mbox_conf_flatten
I1125 23:00:20.102581 30031 net.cpp:434] detection_out <- mbox_priorbox
I1125 23:00:20.102591 30031 net.cpp:408] detection_out -> detection_out
W1125 23:00:20.104804 30031 detection_output_layer.cpp:49] Failed to create directory: /home/tushar.vaidya/data/mscoco/results/SSD_300x300_score/
I1125 23:00:20.107421 30031 net.cpp:150] Setting up detection_out
I1125 23:00:20.107434 30031 net.cpp:157] Top shape: 1 1 1 7 (7)
I1125 23:00:20.107453 30031 net.cpp:165] Memory required for data: 2192423708
I1125 23:00:20.107460 30031 layer_factory.hpp:77] Creating layer detection_eval
I1125 23:00:20.107472 30031 net.cpp:100] Creating Layer detection_eval
I1125 23:00:20.107478 30031 net.cpp:434] detection_eval <- detection_out
I1125 23:00:20.107486 30031 net.cpp:434] detection_eval <- label
I1125 23:00:20.107493 30031 net.cpp:408] detection_eval -> detection_eval
I1125 23:00:20.108459 30031 net.cpp:150] Setting up detection_eval
I1125 23:00:20.108472 30031 net.cpp:157] Top shape: 1 1 81 5 (405)
I1125 23:00:20.108475 30031 net.cpp:165] Memory required for data: 2192425328
I1125 23:00:20.108479 30031 net.cpp:228] detection_eval does not need backward computation.
I1125 23:00:20.108484 30031 net.cpp:228] detection_out does not need backward computation.
I1125 23:00:20.108487 30031 net.cpp:228] mbox_conf_flatten does not need backward computation.
I1125 23:00:20.108491 30031 net.cpp:228] mbox_conf_softmax does not need backward computation.
…
